one/mlruns/0/models/m-c7f6c9978e004d2aaa6ecb117f2da112/artifacts/data/model.pth (torch, 7689 bytes, 4 tensors)

weight f4 [16, 4]
0	0x3e16bd61	0.1472068
1	0xbcb4a046	-0.02204908
2	0x3f113415	0.56720096
3	0x3d9d600e	0.076843366
4	0xbe64c1b8	-0.22339523
5	0xbe146854	-0.14492923
6	0x3df897d0	0.12138331
7	0x3c569340	0.013096631
8	0x3d0832fe	0.033251755
9	0x3e80b315	0.2513663
10	0xbef1ca40	-0.47224617
11	0x3d8dac86	0.06917672
12	0xbdc8b668	-0.09800416
13	0xbe4e8fbc	-0.20172018
14	0xbd80b488	-0.062844336
15	0x3d2e8260	0.042604804
16	0xbd867e39	-0.06567044
17	0xbe09b949	-0.13449587
18	0x3ec070a3	0.37585935
19	0x3ecf70da	0.40515786
20	0xbdcb52a8	-0.09927875
21	0x3e9ac758	0.30230212
22	0x3e7e9bc8	0.24864113
23	0xbe62527a	-0.22101775
24	0xbdcb4c99	-0.09926719
25	0x3e0cee04	0.13762671
26	0xbec6cd80	-0.3882866
27	0x3ec54faa	0.3853734
28	0x3c09b090	0.008403912
29	0xbdcb5643	-0.099285625
30	0x3f204758	0.6260886
31	0xbc204b48	-0.009783573
32	0x3ebd213f	0.36939427
33	0x3dcc6a9d	0.09981272
34	0x3da1bfcb	0.0789791
35	0xbefa0e12	-0.4883886
36	0xbefca264	-0.49342644
37	0x3e70bcdc	0.23509544
38	0xbe9fa7e6	-0.31182784
39	0xbd353900	-0.044243813
40	0x3d727d80	0.059201717
41	0xbeef39b0	-0.467237
42	0xbee2c99e	-0.44294447
43	0xbea161e0	-0.31519985
44	0xbcd70b81	-0.026250603
45	0xbe14d033	-0.14532547
46	0x3e26a0bb	0.16272251
47	0x3f1a5178	0.6028056
48	0x3efd17f4	0.49432337
49	0x3df88d58	0.12136334
50	0xbe12203b	-0.14270107
51	0xbf044608	-0.5166936
52	0x3dcd0232	0.10010184
53	0x3f27a46d	0.6548527
54	0x3e90f9df	0.28315637
55	0x3e95fad6	0.29292935
56	0xbec50ac6	-0.38484782
57	0xbd5a4300	-0.053286552
58	0xbd23e7e0	-0.040016055
59	0x3ed89202	0.42298895
60	0xbeeb5b9a	-0.45968324
61	0x3dd2cec8	0.10293347
62	0xbe94c982	-0.29059988
63	0xbeff15f0	-0.49821424

bias f4 [16]
0	0xbeef5817	-0.46746895
1	0x3ea81ab8	0.32832885
2	0x3d2b72ea	0.041857637
3	0x3e379d5c	0.17931122
4	0x3d98a703	0.0745373
5	0xbeb088b5	-0.344793
6	0xbe84c3ac	-0.25930536
7	0xbf01f36a	-0.50762045
8	0xbe3ce1c2	-0.18445495
9	0xbde1b310	-0.110204816
10	0xbee0a154	-0.43873084
11	0x3e98a46c	0.29812944
12	0xbd74d142	-0.059769876
13	0x3e1d5c96	0.1536735
14	0x3eeddc30	0.46457052
15	0xbe71bef4	-0.23607999

weight f4 [3, 16]
0	0xbe99af4e	-0.3001656
1	0x3e1110ec	0.14166611
2	0xbccfb19d	-0.025353247
3	0xbdad472c	-0.084608406
4	0xbd2a0fa2	-0.041518815
5	0x3d8338e7	0.06407338
6	0xbde8c1a6	-0.113650605
7	0xbec14215	-0.3774573
8	0x3e8d23cb	0.2756637
9	0xbd1b1ad8	-0.037867397
10	0xbd03ccb0	-0.032177627
11	0xbee010cb	-0.43762812
12	0x3e4dacb7	0.20085417
13	0x3dba5eee	0.09100138
14	0xbd833918	-0.06407374
15	0x3da823dc	0.08209965
16	0xbdd1eb83	-0.102499984
17	0x3e6627c8	0.22476113
18	0xbe5b93fb	-0.21443169
19	0xbd8d826c	-0.069096416
20	0x3e4c3308	0.19941342
21	0x3d82e574	0.06391421
22	0x3ce82739	0.028339015
23	0x3e8b3da7	0.27195475
24	0xbe2a73bb	-0.1664571
25	0x3e6e3ce8	0.23265421
26	0x3e569b90	0.2095778
27	0x3e828854	0.25494635
28	0xbc998f16	-0.018744987
29	0x3d85b751	0.065291055
30	0xbc421640	-0.011846125
31	0xbdb02d10	-0.08602345
32	0xbd0262f2	-0.031832643
33	0xbc933090	-0.017967492
34	0xbe2a0d04	-0.16606528
35	0x3e051998	0.12998044
36	0x3e893bb1	0.26803353
37	0x3d842fbd	0.06454418
38	0xbbb616c2	-0.005556912
39	0x3eb1d977	0.34736225
40	0xbd19e4b6	-0.03757163
41	0xbe7d5994	-0.24741203
42	0x3e726a4c	0.23673362
43	0x3e1b22c1	0.15149976
44	0xbe524abf	-0.20536326
45	0x3ba29852	0.0049620057
46	0x3bb73940	0.0055915415
47	0xbe073a2c	-0.13205785

bias f4 [3]
0	0x3e4ee445	0.20204265
1	0xbe2795c3	-0.16365723
2	0xbe119c85	-0.14219864
