one/mlruns/0/models/m-a3792093ab3c4a2f84499d9d7a5bb17f/artifacts/data/model.pth (torch, 7689 bytes, 4 tensors)

weight f4 [16, 4]
0.034558177 -0.48826075 -0.4728024 0.34638476 0.17464088 -0.19278216 -0.044485755 0.21177739
-0.4329971 0.026788712 0.050126493 -0.31172854 -0.16180134 0.48969066 0.048264496 -0.35229552
-0.21553898 0.06936788 0.25704062 -0.014266669 -0.100492366 -0.009218464 0.3848819 0.09761494
0.30024135 0.31700665 0.21590768 -0.1143207 0.104168594 -0.24379516 -0.1053471 0.082770765
-0.2950942 0.41003036 -0.16566193 0.22086142 0.050245762 -0.06558287 -0.3371895 -0.08410537
0.38272423 0.34523863 0.2243616 0.16230112 -0.49429613 0.46723384 0.08177012 -0.49417096
0.4430166 -0.11244566 0.20374727 0.23828286 -0.41118914 0.43899626 0.11980796 -0.38473588
-0.09946383 -0.014321871 0.0940597 0.45141834 -0.40526116 -0.34950942 -0.20992732 -0.2894935
00000000: e08c 0d3d 50fd f9be 2813 f2be 5859 b13e
00000010: 0fd5 323e b068 45be b236 36bd 2cdc 583e
00000020: ccb1 ddbe 0074 db3c 7051 4d3d e29a 9fbe
00000030: 40af 25be bcb8 fa3e feb0 453d 1460 b4be
00000040: 40b6 5cbe bf10 8e3d d49a 833e bfbe 69bc
00000050: f1ce cdbd 0a09 17bc 3e0f c53e 57ea c73d
00000060: 3cb9 993e b24e a23e e716 5d3e f920 eabd
00000070: 5856 d53d 70a5 79be 38c0 d7bd b883 a93d
00000080: 9616 97be 80ef d13e 48a3 29be 7f29 623e
00000090: 80ce 4d3d 5050 86bd 1aa4 acbe 703f acbd
000000a0: 6ef4 c33e 1ec3 b03e 0cbf 653e 4432 263e
000000b0: 6214 fdbe 4639 ef3e 1877 a73d fa03 fdbe
000000c0: 12d3 e23e e949 e6bd 20a3 503e 6c00 743e
000000d0: 6287 d2be 1ec4 e03e e05d f53d 1afc c4be
000000e0: b1b3 cbbd 48a6 6abc 5fa2 c03d 4e20 e73e
000000f0: 647e cfbe e6f2 b2be 30f7 56be 7e38 94be

bias f4 [16]
0.025266469 0.3794722 -0.49462092 0.3681956 0.44535065 -0.12319315 -0.24035122 0.021575153
0.36944425 0.29260302 0.31096452 -0.12898892 -0.069235384 0.17046225 0.3790474 0.17120981
00000000: a0fb ce3c 2e4a c23e f43e fdbe 2284 bc3e
00000010: 0005 e43e b14c fcbd a11e 76be 60be b03c
00000020: cc27 bd3e 10d0 953e be36 9f3e ac15 04be
00000030: 48cb 8dbd a88d 2e3e 8012 c23e a051 2f3e

weight f4 [3, 16]
-0.04438445 -0.2131008 -0.22358453 -0.14362471 -0.09964449 0.18585677 -0.15034696 0.1891864
0.12999171 0.17059451 -0.026224501 -0.10095891 0.060350023 -0.19727835 0.18181245 -0.14767721
0.15460142 -0.15147091 -0.102151304 -0.06483615 -0.018708952 0.10512664 0.08921357 -0.1791226
0.02007282 -0.15904158 0.02689763 -0.015098542 0.09856873 0.19925424 0.026216172 -0.15384349
0.018545419 -0.16966285 0.058317423 -0.09776398 -0.014654002 -0.040327214 -0.23151244 0.15099943
-0.13467282 -0.23743969 -0.061478846 0.17748865 0.07945422 -0.19006461 -0.23100315 -0.027393311
00000000: 78cc 35bd 1937 5abe 58f3 64be 5b12 13be
00000010: 6912 ccbd 3d51 3e3e 8ef4 19be 14ba 413e
00000020: 8c1c 053e 54b0 2e3e c4d4 d6bc 8cc3 cebd
00000030: 9631 773d 5603 4abe 0b2d 3a3e b238 17be
00000040: d64f 1e3e 311b 1bbe b434 d1bd d1c8 84bd
00000050: 8443 99bc a34c d73d 9bb5 b63d ea6b 37be
00000060: c16f a43c ccdb 22be 6b58 dc3c e05f 77bc
00000070: 67de c93d 4e09 4c3e 4cc3 d63c 2689 1dbe
00000080: 90ec 973c 19bc 2dbe 40de 6e3d 7b38 c8bd
00000090: 5717 70bc 262e 25bd 9911 6dbe 989f 1a3e
000000a0: ace7 09be 6423 73be 3ed1 7bbd 96bf 353e
000000b0: e5b8 a23d 4ca0 42be 178c 6cbe f067 e0bc

bias f4 [3]
0.2187992 -0.16842993 -0.0022225883
00000000: e60c 603e e578 2cbe d8a8 11bb
