one/mlruns/0/models/m-6f4c39eb0ad247da830e45702b136fad/artifacts/data/model.pth (torch, 7689 bytes, 4 tensors)

weight f4 [16, 4]
0	0x3d0d8ce0	0.034558177
1	0xbef9fd50	-0.48826075
2	0xbef21328	-0.4728024
3	0x3eb15958	0.34638476
4	0x3e0efed6	0.139644
5	0xbf0c5b7e	-0.54827106
6	0x3f1e4885	0.61829406
7	0x3f785bcf	0.9701509
8	0xbeddb1cc	-0.4329971
9	0x3cdb7400	0.026788712
10	0x3d4d5170	0.050126493
11	0xbe9f9ae2	-0.31172854
12	0x3f041e06	0.5160831
13	0x3f897ccf	1.0741214
14	0xbf358c3e	-0.7091712
15	0xbfa60226	-1.2969406
16	0xbe3f687f	-0.18692206
17	0xbe74ab0a	-0.23893371
18	0x3f6aa45a	0.9165703
19	0x3f3eae71	0.74484926
20	0xbe8140a5	-0.25244632
21	0xbe2769a1	-0.16348888
22	0x3e718d66	0.23589095
23	0xbd4f4047	-0.05059841
24	0x3eb1e12f	0.34742114
25	0x3e9bf25f	0.30458352
26	0x3e1bf462	0.15229943
27	0xbebab555	-0.3646647
28	0x3dd55658	0.104168594
29	0xbe79a570	-0.24379516
30	0xbdd7c038	-0.1053471
31	0x3da983b8	0.082770765
32	0x3e929f23	0.28637037
33	0x3f7e7673	0.9939949
34	0xbf20583f	-0.6263465
35	0xbee0d388	-0.43911386
36	0x3d4dce80	0.050245762
37	0xbd865050	-0.06558287
38	0xbeaca41a	-0.3371895
39	0xbdac3f70	-0.08410537
40	0x3e5195ee	0.2046735
41	0x3c572111	0.013130442
42	0x3e96bc6f	0.29440638
43	0x3e83eea9	0.2576802
44	0xbefd1462	-0.49429613
45	0x3eef3946	0.46723384
46	0x3da77718	0.08177012
47	0xbefd03fa	-0.49417096
48	0x3e4b54bc	0.19856542
49	0xbf0e6811	-0.5562754
50	0x3f5cddf9	0.86276203
51	0x3f7023fb	0.938049
52	0xbed28762	-0.41118914
53	0x3ee0c41e	0.43899626
54	0x3df55de0	0.11980796
55	0xbec4fc1a	-0.38473588
56	0xbe81d598	-0.25358272
57	0xbe305dbb	-0.17223255
58	0xbd60011c	-0.054688558
59	0x3e9b2c7f	0.30307385
60	0xbecf7e64	-0.40526116
61	0xbeb2f2e6	-0.34950942
62	0xbe56f730	-0.20992732
63	0xbe94387e	-0.2894935

bias f4 [16]
0	0x3ccefba0	0.025266469
1	0xbd323675	-0.043508966
2	0xbefd3ef4	-0.49462092
3	0x3f92b84f	1.1462497
4	0x3db8b838	0.09019512
5	0xbe8d96c5	-0.2765409
6	0xbdeef988	-0.11668688
7	0x3cb0be60	0.021575153
8	0x3f89ba77	1.076003
9	0x3e95d010	0.29260302
10	0x3d8f1183	0.06985762
11	0xbe0415ac	-0.12898892
12	0xbf066d17	-0.5251021
13	0x3e2e8da8	0.17046225
14	0x3e63c0b9	0.22241487
15	0x3e2f51a0	0.17120981

weight f4 [3, 16]
0	0xbd35cc78	-0.04438445
1	0xbf53e60f	-0.82772917
2	0xbe64f358	-0.22358453
3	0x3ed68a17	0.4190223
4	0xbf2a5956	-0.66542566
5	0x3d3001d6	0.0429705
6	0x3c81ba85	0.01583601
7	0x3e41ba14	0.1891864
8	0x3f418af6	0.7560266
9	0x3e2eb054	0.17059451
10	0xbe67b5cf	-0.22627948
11	0xbdcec38c	-0.10095891
12	0xbeea8e62	-0.45811754
13	0xbe4a0356	-0.19727835
14	0x3d5b8175	0.053590257
15	0xbe1738b2	-0.14767721
16	0x3e1e4fd6	0.15460142
17	0xbe4cc72b	-0.19997852
18	0xbdd134b4	-0.102151304
19	0x3dfe8017	0.12426775
20	0xbd8acaa6	-0.06776933
21	0xbca34ae8	-0.019933179
22	0x3de48816	0.11158769
23	0xbe376bea	-0.1791226
24	0x3e8da0c6	0.27661723
25	0xbe22dbcc	-0.15904158
26	0x3c9473fd	0.018121714
27	0xbc775fe0	-0.015098542
28	0x3d94cccc	0.072656244
29	0x3e4c094e	0.19925424
30	0xbdb46e3a	-0.088100865
31	0xbe1d8926	-0.15384349
32	0x3c97ec90	0.018545419
33	0x3ea4cc0d	0.32186928
34	0x3d6ede40	0.058317423
35	0xbf7ae137	-0.979999
36	0x3f1d0e7c	0.61350226
37	0x3dc4c921	0.09608675
38	0xbe8d7341	-0.27626994
39	0x3e1a9f98	0.15099943
40	0xbf75e1a3	-0.9604742
41	0xbe732364	-0.23743969
42	0xbcfe2679	-0.031024205
43	0x3e35bf96	0.17748865
44	0x3ea71277	0.32631275
45	0xbe42a04c	-0.19006461
46	0xbddd6bcf	-0.108115785
47	0xbce067f0	-0.027393311

bias f4 [3]
0	0x3f161062	0.5861875
1	0xbd2112bd	-0.03932451
2	0xbe8020d5	-0.2502505
