one/mlruns/0/models/m-3d50b7f0eafc49069a8c09876b7ac216/artifacts/data/model.pth (torch, 7689 bytes, 4 tensors)

weight f4 [16, 4]
000000 62 c0 5e 3e 94 5e 90 3d 9b fb ef 3e 64 53 d9 bc
       0.21753076 0.07049289 0.46871647 -0.026529022
000010 b8 c1 64 be 54 68 14 be d0 97 f8 3d 40 93 56 3c
       -0.22339523 -0.14492923 0.12138331 0.013096631
000020 4f 50 b9 bb 0e 6d 58 3e 8a 32 02 bf 32 61 03 3d
       -0.0056553255 0.21135351 -0.50858366 0.032075115
000030 68 b6 c8 bd bc 8f 4e be 88 b4 80 bd 60 82 2e 3d
       -0.09800416 -0.20172018 -0.062844336 0.042604804
000040 64 71 35 bb 4e 8b 37 bd d4 90 8c 3e 98 b6 9b 3e
       -0.0027685994 -0.044810586 0.27454245 0.30412745
000050 16 3f 66 bd a9 ab b7 3e e6 da 39 3e 59 1b 93 be
       -0.056212507 0.35873154 0.1814991 -0.28731802
000060 5a 76 b0 bd 48 68 1a 3e b9 3a c0 be b7 e5 cb 3e
       -0.08616324 0.15078843 -0.37544802 0.39823696
000070 08 62 2e bc 53 25 49 bd af 14 06 3f b6 d2 df bd
       -0.01064349 -0.04910786 0.5237531 -0.10928862
000080 a3 1d b0 3e 70 04 85 3c 60 24 27 3e 40 fb cc be
       0.3439761 0.016237468 0.1632247 -0.4003544
000090 64 a2 fc be dc bc 70 3e e6 a7 9f be 00 39 35 bd
       -0.49342644 0.23509544 -0.31182784 -0.044243813
0000a0 80 7d 72 3d b0 39 ef be 9e c9 e2 be e0 61 a1 be
       0.059201717 -0.467237 -0.44294447 -0.31519985
0000b0 64 5f 13 bd c2 14 b9 bd f9 1b 93 3d cc b5 01 3f
       -0.035979643 -0.09037162 0.0718307 0.50668025
0000c0 cb 6f cb 3e dd 2a 4b 3c 23 3e 2b bd 1f 04 d3 be
       0.3973373 0.012400356 -0.041807305 -0.41214082
0000d0 1e 4f 76 3d d3 7b 15 3f 17 76 ae 3e ee 8d b8 3e
       0.060134046 0.58392066 0.3407447 0.36045784
0000e0 c6 0a c5 be 00 43 5a bd e0 e7 23 bd 02 92 d8 3e
       -0.38484782 -0.053286552 -0.040016055 0.42298895
0000f0 9a 5b eb be c8 ce d2 3d 82 c9 94 be f0 15 ff be
       -0.45968324 0.10293347 -0.29059988 -0.49821424

bias f4 [16]
000000 b9 96 c2 be b8 1a a8 3e 4a 8b 57 3b 5c 9d 37 3e
       -0.38005617 0.32832885 0.003288942 0.17931122
000010 90 30 21 3e 06 51 95 be 39 35 7c be 74 fe f4 be
       0.15741181 -0.29163378 -0.24629678 -0.47850382
000020 c1 5d 76 be 10 b3 e1 bd 54 a1 e0 be 1e 31 a5 3e
       -0.24059202 -0.110204816 -0.43873084 0.32264036
000030 c9 3c 2c be 7d d5 aa 3d 30 dc ed 3e f4 be 71 be
       -0.16820063 0.08341501 0.46457052 -0.23607999

weight f4 [3, 16]
000000 49 1b 53 be ec 10 11 3e e1 a4 83 bd 2c 47 ad bd
       -0.20615877 0.14166611 -0.064279325 -0.084608406
000010 16 f8 66 3d f4 36 71 3b 43 7c 00 be 6a cd 8d be
       0.056388937 0.0036806436 -0.12547402 -0.2769578
000020 10 87 39 3e d8 1a 1b bd b0 cc 03 bd ca f9 ab be
       0.18117929 -0.037867397 -0.032177627 -0.3358901
000030 ed 7c c2 3d 0c 4e 9d 3d 18 39 83 bd dc 23 a8 3d
       0.09496484 0.07680902 -0.06407374 0.08209965
000040 e5 2b ff bd c8 27 66 3e 1a e5 2e be 6c 82 8d bd
       -0.12459544 0.22476113 -0.17079583 -0.069096416
000050 b3 d9 33 3e a8 5b c5 3d d6 c7 25 3d 8c 72 6b 3e
       0.17563514 0.09636623 0.04047378 0.22992915
000060 d6 07 45 be e8 3c 6e 3e 90 9b 56 3e 74 7f 64 3e
       -0.1924127 0.23265421 0.2095778 0.22314245
000070 ec 98 0b bd 48 e1 8b 3d 40 16 42 bc 10 2d b0 bd
       -0.034081385 0.06830078 -0.011846125 -0.08602345
000080 cd 26 79 bd 90 30 93 bc 27 eb 05 be 98 19 05 3e
       -0.06082802 -0.017967492 -0.13077985 0.12998044
000090 8c aa 47 3e fe fe ee 3d a3 6e c8 3b 12 e7 88 3e
       0.19498652 0.1166973 0.0061167045 0.26738793
0000a0 0e a9 6d 3c 94 59 7d be 4c 6a 72 3e b0 71 73 3d
       0.014505638 -0.24741203 0.23673362 0.059434593
0000b0 3c 78 e8 bd da 01 e3 3b 40 39 b7 3b 2c 3a 07 be
       -0.11351058 0.006927711 0.0055915415 -0.13205785

bias f4 [3]
000000 6e 5e f2 3d 04 83 34 be 65 fb 8b bd
       0.11834417 -0.17628103 -0.06835059
