one/mlruns/0/models/m-25724eca64a04a27b5515e157b7e9da1/artifacts/data/model.pth (torch, 7689 bytes, 4 tensors)

weight f4 [16, 4]
0.034558177 -0.48826075 -0.4728024 0.34638476 0.13620701 -0.3206863 0.12630892 0.39664352
-0.4329971 0.026788712 0.050126493 -0.31172854 -0.14654799 0.5081157 -0.02547931 -0.40986678
-0.18839526 -0.028473832 0.44975498 0.18750778 -0.22716123 -0.13766885 0.26056492 -0.02608294
0.2317231 0.23089424 0.1601203 -0.18052638 0.104168594 -0.24379516 -0.1053471 0.082770765
-0.124638475 0.6038279 -0.21177185 0.12574969 0.050245762 -0.06558287 -0.3371895 -0.08410537
0.2579189 0.19771756 0.15658855 0.11731087 -0.49429613 0.46723384 0.08177012 -0.49417096
0.3056979 -0.30121425 0.33332002 0.39288598 -0.41118914 0.43899626 0.11980796 -0.38473588
-0.2287181 -0.1464658 -0.030934984 0.3268079 -0.40526116 -0.34950942 -0.20992732 -0.2894935
00000000: e08c 0d3d 50fd f9be 2813 f2be 5859 b13e
00000010: da79 0b3e ff30 a4be 2057 013e dc14 cb3e
00000020: ccb1 ddbe 0074 db3c 7051 4d3d e29a 9fbe
00000030: ad10 16be df13 023f fcb9 d0bc 0fda d1be
00000040: b0ea 40be f441 e9bc 4946 e63e 0a02 403e
00000050: f49c 68be 10f9 0cbe c468 853e e4ab d5bc
00000060: d248 6d3e 8a6f 6c3e 93f6 233e e8db 38be
00000070: 5856 d53d 70a5 79be 38c0 d7bd b883 a93d
00000080: 7542 ffbd 7794 1a3f b8da 58be 87c4 003e
00000090: 80ce 4d3d 5050 86bd 1aa4 acbe 703f acbd
000000a0: f20d 843e 7976 4a3e c058 203e ae40 f03d
000000b0: 6214 fdbe 4639 ef3e 1877 a73d fa03 fdbe
000000c0: 6f84 9c3e c138 9abe eca8 aa3e 5a28 c93e
000000d0: 6287 d2be 1ec4 e03e e05d f53d 1afc c4be
000000e0: 1435 6abe 21fb 15be 5d6b fdbc 5d53 a73e
000000f0: 647e cfbe e6f2 b2be 30f7 56be 7e38 94be

bias f4 [16]
0.025266469 0.26856056 -0.49462092 0.38646978 0.3875654 -0.2509322 -0.3085416 0.021575153
0.55793595 0.29260302 0.16804495 -0.12898892 -0.24556524 0.17046225 0.247869 0.17120981
00000000: a0fb ce3c c580 893e f43e fdbe 5edf c53e
00000010: f96e c63e 2f7a 80be 2af9 9dbe 60be b03c
00000020: e4d4 0e3f 10d0 953e fa13 2c3e ac15 04be
00000030: 7475 7bbe a88d 2e3e 5fd1 7d3e a051 2f3e

weight f4 [3, 16]
-0.04438445 -0.4216083 -0.22358453 0.044274952 -0.30651852 0.065700136 -0.115938425 0.1891864
0.33017 0.17059451 -0.08186421 -0.10095891 -0.13632901 -0.19727835 0.07253174 -0.14767721
0.15460142 -0.1714987 -0.102151304 -0.2055002 0.0045127356 -0.0005319648 0.021802474 -0.1791226
-0.11824166 -0.15904158 -0.033838876 -0.015098542 0.061795264 0.19925424 -0.07136002 -0.15384349
0.018545419 -0.054288685 0.058317423 -0.24036694 0.12650214 0.074557826 -0.17126122 0.15099943
-0.3353029 -0.23743969 0.0008543439 0.17748865 0.16913424 -0.19006461 -0.12622009 -0.027393311
00000000: 78cc 35bd 0bdd d7be 58f3 64be a759 353d
00000010: ffef 9cbe cb8d 863d 2071 edbd 14ba 413e
00000020: 0b0c a93e 54b0 2e3e 6ca8 a7bd 8cc3 cebd
00000030: d599 0bbe 5603 4abe 858b 943d b238 17be
00000040: d64f 1e3e 5b9d 2fbe b434 d1bd a56e 52be
00000050: 92df 933b 8e73 0bba 1a9b b23c ea6b 37be
00000060: af28 f2bd ccdb 22be a29a 0abd e05f 77bc
00000070: 081d 7d3d 4e09 4c3e 3425 92bd 2689 1dbe
00000080: 90ec 973c d05d 5ebd 40de 6e3d c022 76be
00000090: c789 013e c6b1 983d 1a5f 2fbe 989f 1a3e
000000a0: d2ac abbe 6423 73be 0cf6 5f3a 96bf 353e
000000b0: 8731 2d3e 4ca0 42be d73f 01be f067 e0bc

bias f4 [3]
0.39512515 -0.22325554 0.0047080773
00000000: d84d ca3e 1a9d 64be 3746 9a3b
