one/mlruns/0/models/m-daf1c6f231bf428e9ca52565945cd602/artifacts/data/model.pth (torch, 7689 bytes, 4 tensors)

weight f4 [16, 4]
0.034558177 -0.48826075 -0.4728024 0.34638476 0.14817727 -0.49924916 0.44156584 0.73783857
-0.4329971 0.026788712 0.050126493 -0.31172854 0.18738513 0.84190536 -0.40565592 -0.8535316
-0.17437187 -0.20028126 0.74976 0.5158098 -0.25190845 -0.16293956 0.23641594 -0.05007684
0.29772484 0.27160528 0.17539681 -0.24939898 0.104168594 -0.24379516 -0.1053471 0.082770765
0.076335795 0.85058784 -0.493955 -0.20106246 0.050245762 -0.06558287 -0.3371895 -0.08410537
0.20745975 0.073455915 0.24532713 0.23259427 -0.49429613 0.46723384 0.08177012 -0.49417096
0.2109779 -0.503968 0.68411314 0.7383949 -0.41118914 0.43899626 0.11980796 -0.38473588
-0.2530537 -0.17168441 -0.0541832 0.30357876 -0.40526116 -0.34950942 -0.20992732 -0.2894935
00000000: e08c 0d3d 50fd f9be 2813 f2be 5859 b13e
00000010: c8bb 173e 969d ffbe eb14 e23e fde2 3c3f
00000020: ccb1 ddbe 0074 db3c 7051 4d3d e29a 9fbe
00000030: e3e1 3f3e 1c87 573f 22b2 cfbe 0c81 5abf
00000040: 8a8e 32be 8816 4dbe 45f0 3f3f 1c0c 043f
00000050: 25fa 80be a1d9 26be 0517 723e 5f1d 4dbd
00000060: 646f 983e d90f 8b3e 399b 333e 7262 7fbe
00000070: 5856 d53d 70a5 79be 38c0 d7bd b883 a93d
00000080: f155 9c3d 20c0 593f abe7 fcbe 51e3 4dbe
00000090: 80ce 4d3d 5050 86bd 1aa4 acbe 703f acbd
000000a0: 5470 543e 0e70 963d 0937 7b3e 312d 6e3e
000000b0: 6214 fdbe 4639 ef3e 1877 a73d fa03 fdbe
000000c0: 970a 583e 0c04 01bf 0a22 2f3f 7307 3d3f
000000d0: 6287 d2be 1ec4 e03e e05d f53d 1afc c4be
000000e0: 4190 81be 0ace 2fbe 34ef 5dbd ad6e 9b3e
000000f0: 647e cfbe e6f2 b2be 30f7 56be 7e38 94be

bias f4 [16]
0.025266469 0.096873865 -0.49462092 0.76336634 0.22898124 -0.27599612 -0.2075584 0.021575153
0.8288309 0.29260302 0.07796493 -0.12898892 -0.43879706 0.17046225 0.2229564 0.17120981
00000000: a0fb ce3c ce65 c63d f43e fdbe fa6b 433f
00000010: 0f7a 6a3e 5d4f 8dbe 308a 54be 60be b03c
00000020: 432e 543f 10d0 953e 14ac 9f3d ac15 04be
00000030: 02aa e0be a88d 2e3e af4e 643e a051 2f3e

weight f4 [3, 16]
-0.04438445 -0.70677435 -0.22358453 0.27643192 -0.56693923 0.043454066 -0.083964184 0.1891864
0.60880667 0.17059451 -0.1959817 -0.10095891 -0.37309372 -0.19727835 0.053993244 -0.14767721
0.15460142 -0.11469418 -0.102151304 -0.11446202 0.057943545 -0.019520422 0.0793619 -0.1791226
0.002048661 -0.15904158 0.012381786 -0.015098542 0.10686098 0.19925424 -0.087744705 -0.15384349
0.018545419 0.14460498 0.058317423 -0.6490062 0.39906734 0.095628716 -0.23202005 0.15099943
-0.7002273 -0.23743969 -0.02947228 0.17748865 0.24970284 -0.19006461 -0.10850095 -0.027393311
00000000: 78cc 35bd 2aef 34bf 58f3 64be 7c88 8d3e
00000010: ee22 11bf e4fc 313d 6af5 abbd 14ba 413e
00000020: c1da 1b3f 54b0 2e3e 6daf 48be 8cc3 cebd
00000030: 2406 bfbe 5603 4abe 0528 5d3d b238 17be
00000040: d64f 1e3e c8e4 eabd b434 d1bd 106b eabd
00000050: 3656 6d3d 4be9 9fbc 7e88 a23d ea6b 37be
00000060: d442 063b ccdb 22be f9dc 4a3c e05f 77bc
00000070: eed9 da3d 4e09 4c3e 7fb3 b3bd 2689 1dbe
00000080: 90ec 973c 5413 143e 40de 6e3d 4525 26bf
00000090: 8e52 cc3e fdd8 c33d aa96 6dbe 989f 1a3e
000000a0: 1942 33bf 6423 73be da6f f1bc 96bf 353e
000000b0: 1ab2 7f3e 4ca0 42be bf35 debd f067 e0bc

bias f4 [3]
0.53347313 -0.10657617 -0.16394073
00000000: b291 083f 9b44 dabd 14e0 27be
