one/mlruns/0/models/m-13172d53b6a1484caafeef7a6e1f4a90/artifacts/data/model.pth (torch, 7689 bytes, 4 tensors)

weight f4 [16, 4]
0	0x3caa7c45	0.02081121
1	0xbea33dbb	-0.31883034
2	0x3f902ef7	1.1264333
3	0x3f2b9ad5	0.6703313
4	0xbe64c1b8	-0.22339523
5	0xbe146854	-0.14492923
6	0x3df897d0	0.12138331
7	0x3c569340	0.013096631
8	0x3e52dbda	0.20591679
9	0x3f0edb39	0.5580326
10	0xbf29fea0	-0.6640415
11	0xbe8f72c6	-0.28017253
12	0xbdc8b668	-0.09800416
13	0xbe4e8fbc	-0.20172018
14	0xbd80b488	-0.062844336
15	0x3d2e8260	0.042604804
16	0xbd8c3057	-0.068451576
17	0xbed85e8d	-0.42259637
18	0x3f6be5fb	0.921478
19	0x3f8735f2	1.0563338
20	0xbe41ac52	-0.18913391
21	0x3e7ae87a	0.24502745
22	0x3e8df665	0.27727047
23	0xbe1e8d0d	-0.15483494
24	0xbddc490c	-0.1075612
25	0x3e046637	0.12929617
26	0xbecaf69b	-0.3964127
27	0x3ec1247d	0.3772315
28	0x3d1c52e7	0.038165
29	0xbe8c9ee7	-0.27464983
30	0x3f70319f	0.93825716
31	0x3eada40a	0.33914214
32	0x3f0f80f7	0.5605616
33	0x3edd728f	0.43251464
34	0xbe8b86fe	-0.27251428
35	0xbf7cc8ba	-0.98743784
36	0xbefca264	-0.49342644
37	0x3e70bcdc	0.23509544
38	0xbe9fa7e6	-0.31182784
39	0xbd353900	-0.044243813
40	0x3d727d80	0.059201717
41	0xbeef39b0	-0.467237
42	0xbee2c99e	-0.44294447
43	0xbea161e0	-0.31519985
44	0xba375f02	-0.0006995053
45	0xbea9047c	-0.33011234
46	0x3ef468bf	0.47736165
47	0x3f7fc695	0.9991239
48	0x3f919766	1.1374328
49	0x3f33530c	0.70048594
50	0xbf246d41	-0.6422921
51	0xbf9587a9	-1.1682025
52	0x3ecc9895	0.3996016
53	0x3f84328c	1.0327926
54	0x3cda842a	0.026674349
55	0xbd973688	-0.07383448
56	0xbec50ac6	-0.38484782
57	0xbd5a4300	-0.053286552
58	0xbd23e7e0	-0.040016055
59	0x3ed89202	0.42298895
60	0xbeeb5b9a	-0.45968324
61	0x3dd2cec8	0.10293347
62	0xbe94c982	-0.29059988
63	0xbeff15f0	-0.49821424

bias f4 [16]
0	0xbf59142f	-0.8479642
1	0x3ea81ab8	0.32832885
2	0x3e8e401a	0.2778328
3	0x3e379d5c	0.17931122
4	0xbeb22717	-0.34795448
5	0xbee4f144	-0.4471532
6	0xbe88fade	-0.26753896
7	0xbf32d596	-0.69857156
8	0x3e6f3211	0.23358943
9	0xbde1b310	-0.110204816
10	0xbee0a154	-0.43873084
11	0x3dfc7f4d	0.12328968
12	0x3f304e57	0.6886954
13	0x3f23efe5	0.64037925
14	0x3eeddc30	0.46457052
15	0xbe71bef4	-0.23607999

weight f4 [3, 16]
0	0xbf32d0eb	-0.69850034
1	0x3e1110ec	0.14166611
2	0x3e9b30c2	0.30310637
3	0xbdad472c	-0.084608406
4	0xbebbc866	-0.3667633
5	0x3db83ca6	0.08995943
6	0xbdd96e27	-0.10616713
7	0xbf2c22ac	-0.67240405
8	0x3f2a5311	0.66533
9	0xbd1b1ad8	-0.037867397
10	0xbd03ccb0	-0.032177627
11	0xbf470d33	-0.77754515
12	0x3f0f1c0f	0.5590219
13	0x3e9ed095	0.3101851
14	0xbd833918	-0.06407374
15	0x3da823dc	0.08209965
16	0xbe69ff1d	-0.22851224
17	0x3e6627c8	0.22476113
18	0xbf32c696	-0.6983427
19	0xbd8d826c	-0.069096416
20	0xbd44c726	-0.048041485
21	0xbd84176e	-0.06449781
22	0x3ca93bff	0.020658491
23	0x3dcba0b0	0.09942758
24	0x3e583c0f	0.2111666
25	0x3e6e3ce8	0.23265421
26	0x3e569b90	0.2095778
27	0xbe06e9ea	-0.13175169
28	0x3f0ff6cf	0.56235975
29	0x3e49bc4a	0.19700733
30	0xbc421640	-0.011846125
31	0xbdb02d10	-0.08602345
32	0x3e954e19	0.29161146
33	0xbc933090	-0.017967492
34	0xbeae7cd9	-0.34079626
35	0x3e051998	0.12998044
36	0x3f3155bf	0.69271463
37	0x3dc9009f	0.098145716
38	0xbc5419ae	-0.012945576
39	0x3f386156	0.7202352
40	0xbef42222	-0.4768229
41	0xbe7d5994	-0.24741203
42	0x3e726a4c	0.23673362
43	0x3f1acf76	0.6047281
44	0xbf494f43	-0.7863657
45	0xbe2e81a0	-0.17041636
46	0x3bb73940	0.0055915415
47	0xbe073a2c	-0.13205785

bias f4 [3]
0	0x3eaa881a	0.33306962
1	0x3e2bb721	0.16769077
2	0xbee0ba39	-0.43892077
