one/mlruns/0/models/m-6c49dc24d235439a9380d1595790eebe/artifacts/data/model.pth (torch, 7689 bytes, 4 tensors)

weight f4 [16, 4]
0.011720186 -0.28182507 1.0292552 0.56613123 -0.22339523 -0.14492923 0.12138331 0.013096631
0.17805843 0.4973959 -0.6029888 -0.18212318 -0.09800416 -0.20172018 -0.062844336 0.042604804
-0.074848756 -0.3729475 0.8309031 0.94368696 -0.1659158 0.25746268 0.27798966 -0.1664761
-0.10753967 0.12931776 -0.39639157 0.37725264 0.02857113 -0.25626636 0.8984669 0.29047024
0.5117502 0.37084714 -0.21555713 -0.8857462 -0.49342644 0.23509544 -0.31182784 -0.044243813
0.059201717 -0.467237 -0.44294447 -0.31519985 -0.007917269 -0.30982116 0.43201995 0.9317773
1.0336635 0.59682995 -0.567364 -1.0610898 0.3382192 0.95059574 0.075043455 0.00012117252
-0.38484782 -0.053286552 -0.040016055 0.42298895 -0.45968324 0.10293347 -0.29059988 -0.49821424
00000000: 0606 403c 604b 90be a2be 833f faed 103f
00000010: b8c1 64be 5468 14be d097 f83d 4093 563c
00000020: f354 363e adaa fe3e 795d 1abf 807e 3abe
00000030: 68b6 c8bd bc8f 4ebe 88b4 80bd 6082 2e3d
00000040: 4e4a 99bd faf2 bebe 11b6 543f 7895 713f
00000050: d5e5 29be 26d2 833e a954 8e3e b678 2abe
00000060: c23d dcbd e06b 043e d6f3 cabe 4227 c13e
00000070: 010e ea3c 5835 83be ed01 663f 84b8 943e
00000080: 1002 033f addf bd3e 02bb 5cbe 43c0 62bf
00000090: 64a2 fcbe dcbc 703e e6a7 9fbe 0039 35bd
000000a0: 807d 723d b039 efbe 9ec9 e2be e061 a1be
000000b0: 6fb7 01bc e1a0 9ebe b831 dd3e f588 6e3f
000000c0: 164f 843f d9c9 183f c43e 11bf cad1 87bf
000000d0: 112b ad3e 3e5a 733f 62b0 993d 001e fe38
000000e0: c60a c5be 0043 5abd e0e7 23bd 0292 d83e
000000f0: 9a5b ebbe c8ce d23d 82c9 94be f015 ffbe

bias f4 [16]
-0.77892476 0.32832885 0.23548925 0.17931122 -0.24361503 -0.41779977 -0.2675176 -0.6641477
0.12049443 -0.110204816 -0.43873084 0.16440767 0.54292953 0.5240017 0.46457052 -0.23607999
00000000: 9d67 47bf b81a a83e 1824 713e 5c9d 373e
00000010: 3876 79be dae9 d5be 11f8 88be 9505 2abf
00000020: c9c5 f63d 10b3 e1bd 54a1 e0be 7c5a 283e
00000030: 6efd 0a3f fa24 063f 30dc ed3e f4be 71be

weight f4 [3, 16]
-0.63895935 0.14166611 0.24365057 -0.084608406 -0.32343856 0.092562445 -0.10618656 -0.6382752
0.6024517 -0.037867397 -0.032177627 -0.732908 0.50718844 0.2692873 -0.06407374 0.08209965
-0.20044793 0.22476113 -0.58092517 -0.069096416 0.005267743 -0.04412018 0.020678421 0.13459964
0.1524354 0.23265421 0.2095778 -0.071505874 0.46846005 0.16323733 -0.011846125 -0.08602345
0.2365052 -0.017967492 -0.33678645 0.12998044 0.62632406 0.0853011 -0.012926406 0.67081386
-0.4088952 -0.24741203 0.23673362 0.54293543 -0.6983162 -0.12954982 0.0055915415 -0.13205785
00000000: d792 23bf ec10 113e 897f 793e 2c47 adbd
00000010: bd99 a5be 6191 bd3d 5778 d9bd 0166 23bf
00000020: 463a 1a3f d81a 1bbd b0cc 03bd dc9f 3bbf
00000030: 1ad7 013f 06e0 893e 1839 83bd dc23 a83d
00000040: 3942 4dbe c827 663e 83b7 14bf 6c82 8dbd
00000050: 089d ac3b 5db7 34bd cb65 a93c 7dd4 093e
00000060: 0718 1c3e e83c 6e3e 909b 563e ac71 92bd
00000070: ffd9 ef3e b027 273e 4016 42bc 102d b0bd
00000080: 6b2e 723e 9030 93bc 466f acbe 9819 053e
00000090: c656 203f 58b2 ae3d 47c9 53bc 75ba 2b3f
000000a0: b65a d1be 9459 7dbe 4c6a 723e d1fd 0a3f
000000b0: dac4 32bf b5a8 04be 4039 b73b 2c3a 07be

bias f4 [3]
0.32772377 0.116003975 -0.40372604
00000000: 69cb a73e 7e93 ed3d 2eb5 cebe
