one/mlruns/0/models/m-a8a8fb115eb94a56ad2129cfbd94ff60/artifacts/data/model.pth (torch, 7689 bytes, 4 tensors)

weight f4 [16, 4]
0	0x3d0d8ce0	0.034558177
1	0xbef9fd50	-0.48826075
2	0xbef21328	-0.4728024
3	0x3eb15958	0.34638476
4	0x3e160d25	0.14653452
5	0xbec05d3b	-0.3757113
6	0x3e6b4883	0.2297688
7	0x3f010b3b	0.5040776
8	0xbeddb1cc	-0.4329971
9	0x3cdb7400	0.026788712
10	0x3d4d5170	0.050126493
11	0xbe9f9ae2	-0.31172854
12	0xbd565462	-0.052326567
13	0x3f1c56ae	0.6106976
14	0xbe0cbaf9	-0.137432
15	0xbf068dca	-0.525601
16	0xbe2978e0	-0.16550016
17	0xbd9612fc	-0.0732784
18	0x3f0d3f84	0.5517504
19	0x3e95aeb2	0.29234844
20	0xbe786628	-0.2425772
21	0xbe1d17be	-0.15341088
22	0x3e7b6a05	0.24552162
23	0xbd280eaa	-0.04102961
24	0x3e7f5c3f	0.24937533
25	0x3e73ad91	0.23796679
26	0x3e35f796	0.17770228
27	0xbe34c257	-0.1765226
28	0x3dd55658	0.104168594
29	0xbe79a570	-0.24379516
30	0xbdd7c038	-0.1053471
31	0x3da983b8	0.082770765
32	0xbd87330e	-0.06601535
33	0x3f308a72	0.6896125
34	0xbea082e6	-0.31349868
35	0x3ca440b0	0.020050377
36	0x3d4dce80	0.050245762
37	0xbd865050	-0.06558287
38	0xbeaca41a	-0.3371895
39	0xbdac3f70	-0.08410537
40	0x3e61d67c	0.22054476
41	0x3e106d95	0.14104302
42	0x3e2e6578	0.17030895
43	0x3e19a2e4	0.15003544
44	0xbefd1462	-0.49429613
45	0x3eef3946	0.46723384
46	0x3da77718	0.08177012
47	0xbefd03fa	-0.49417096
48	0x3e68b3e2	0.2272487
49	0xbeccaf89	-0.39977673
50	0x3ee1704e	0.44030994
51	0x3f008bb4	0.5021317
52	0xbed28762	-0.41118914
53	0x3ee0c41e	0.43899626
54	0x3df55de0	0.11980796
55	0xbec4fc1a	-0.38473588
56	0xbe79bb10	-0.24387765
57	0xbe26114d	-0.16217537
58	0xbd3a0751	-0.045417134
59	0x3e9feab9	0.31233767
60	0xbecf7e64	-0.40526116
61	0xbeb2f2e6	-0.34950942
62	0xbe56f730	-0.20992732
63	0xbe94387e	-0.2894935

bias f4 [16]
0	0x3ccefba0	0.025266469
1	0x3e664023	0.22485404
2	0xbefd3ef4	-0.49462092
3	0x3efa010f	0.48828933
4	0x3eb7639c	0.35818183
5	0xbe8878a3	-0.2665454
6	0xbe92e047	-0.28686735
7	0x3cb0be60	0.021575153
8	0x3f23be87	0.63962597
9	0x3e95d010	0.29260302
10	0x3deb7cfb	0.114984475
11	0xbe0415ac	-0.12898892
12	0xbeaddeec	-0.33959138
13	0x3e2e8da8	0.17046225
14	0x3e6ded2c	0.23235005
15	0x3e2f51a0	0.17120981

weight f4 [3, 16]
0	0xbd35cc78	-0.04438445
1	0xbf063ca6	-0.5243629
2	0xbe64f358	-0.22358453
3	0x3e04107c	0.12896913
4	0xbeced5aa	-0.40397388
5	0x3d54588c	0.051842257
6	0xbdccd089	-0.100007124
7	0x3e41ba14	0.1891864
8	0x3eddad4a	0.43296272
9	0x3e2eb054	0.17059451
10	0xbdf6ad9d	-0.12044833
11	0xbdcec38c	-0.10095891
12	0xbe69207d	-0.227663
13	0xbe4a0356	-0.19727835
14	0x3d79c9c5	0.060983438
15	0xbe1738b2	-0.14767721
16	0x3e1e4fd6	0.15460142
17	0xbdf3eaf9	-0.11910052
18	0xbdd134b4	-0.102151304
19	0xbe7ba5fd	-0.24575038
20	0x3d94f121	0.07272554
21	0xbc4a83f4	-0.012360562
22	0x3d243155	0.04008611
23	0xbe376bea	-0.1791226
24	0xbe28cdc7	-0.16484748
25	0xbe22dbcc	-0.15904158
26	0xbc436693	-0.011926311
27	0xbc775fe0	-0.015098542
28	0x3dcbf92e	0.09959637
29	0x3e4c094e	0.19925424
30	0xbda70c69	-0.08156664
31	0xbe1d8926	-0.15384349
32	0x3c97ec90	0.018545419
33	0xbc56ec05	-0.013117795
34	0x3d6ede40	0.058317423
35	0xbeaea1db	-0.3410786
36	0x3e4279ba	0.18991747
37	0x3db3937b	0.08768364
38	0xbe43da74	-0.19126302
39	0x3e1a9f98	0.15099943
40	0xbee065b1	-0.43827584
41	0xbe732364	-0.23743969
42	0xbc803c5b	-0.01565378
43	0x3e35bf96	0.17748865
44	0x3e382d3d	0.17986007
45	0xbe42a04c	-0.19006461
46	0xbdebe4a6	-0.115182206
47	0xbce067f0	-0.027393311

bias f4 [3]
0	0x3eea547d	0.45767584
1	0xbe43600c	-0.19079608
2	0xbd522384	-0.0513034
