one/mlruns/0/models/m-d47cb89b4298418189aba919fc56d268/artifacts/data/model.pth (torch, 7689 bytes, 4 tensors)

weight f4 [16, 4]
0	0x3d0d8ce0	0.034558177
1	0xbef9fd50	-0.48826075
2	0xbef21328	-0.4728024
3	0x3eb15958	0.34638476
4	0x3e116e86	0.14202318
5	0xbf05128f	-0.51981443
6	0x3efa6356	0.48903912
7	0x3f4c9469	0.79913956
8	0xbeddb1cc	-0.4329971
9	0x3cdb7400	0.026788712
10	0x3d4d5170	0.050126493
11	0xbe9f9ae2	-0.31172854
12	0x3e8ca372	0.2746845
13	0x3f68779a	0.908075
14	0xbefaae0a	-0.48960906
15	0xbf797167	-0.97438663
16	0xbe3a72dd	-0.1820788
17	0xbe60cc61	-0.21952964
18	0x3f4b76fc	0.7947843
19	0x3f138975	0.5763162
20	0xbe81272a	-0.25225192
21	0xbe273595	-0.16329034
22	0x3e71bf24	0.2360807
23	0xbd4e7a9c	-0.0504099
24	0x3ea05bc7	0.3132002
25	0x3e90e434	0.28299105
26	0x3e2cc044	0.16870219
27	0xbe9102e8	-0.2832253
28	0x3dd55658	0.104168594
29	0xbe79a570	-0.24379516
30	0xbdd7c038	-0.1053471
31	0x3da983b8	0.082770765
32	0x3e0a3e26	0.1350027
33	0x3f64c6b7	0.89365715
34	0xbf07edcc	-0.53097224
35	0xbe87c2fe	-0.26515955
36	0x3d4dce80	0.050245762
37	0xbd865050	-0.06558287
38	0xbeaca41a	-0.3371895
39	0xbdac3f70	-0.08410537
40	0x3e543549	0.20723452
41	0x3d70df70	0.058806837
42	0x3e8404f5	0.25785032
43	0x3e745670	0.23861098
44	0xbefd1462	-0.49429613
45	0x3eef3946	0.46723384
46	0x3da77718	0.08177012
47	0xbefd03fa	-0.49417096
48	0x3e4b6fb5	0.19866832
49	0xbf0690cd	-0.525647
50	0x3f3b6e86	0.7321552
51	0x3f4aed2d	0.7926815
52	0xbed28762	-0.41118914
53	0x3ee0c41e	0.43899626
54	0x3df55de0	0.11980796
55	0xbec4fc1a	-0.38473588
56	0xbe81bc88	-0.2533915
57	0xbe3029ce	-0.17203447
58	0xbd5f4198	-0.054505914
59	0x3e9b446b	0.30325636
60	0xbecf7e64	-0.40526116
61	0xbeb2f2e6	-0.34950942
62	0xbe56f730	-0.20992732
63	0xbe94387e	-0.2894935

bias f4 [16]
0	0x3ccefba0	0.025266469
1	0x3d6ae2d9	0.057345245
2	0xbefd3ef4	-0.49462092
3	0x3f5d65fe	0.8648375
4	0x3e41bb03	0.18918996
5	0xbe8d7cf6	-0.276344
6	0xbe3870e5	-0.18011816
7	0x3cb0be60	0.021575153
8	0x3f657a00	0.8963928
9	0x3e95d010	0.29260302
10	0x3d9c4f60	0.07632327
11	0xbe0415ac	-0.12898892
12	0xbeefd90b	-0.46845278
13	0x3e2e8da8	0.17046225
14	0x3e63f408	0.2226106
15	0x3e2f51a0	0.17120981

weight f4 [3, 16]
0	0xbd35cc78	-0.04438445
1	0xbf3d346a	-0.739081
2	0xbe64f358	-0.22358453
3	0x3e9f3939	0.31098345
4	0xbf180ce5	-0.59394675
5	0x3d30b918	0.04314527
6	0xbd7d27f7	-0.06180569
7	0x3e41ba14	0.1891864
8	0x3f2595f9	0.64681965
9	0x3e2eb054	0.17059451
10	0xbe50aa9b	-0.20377581
11	0xbdcec38c	-0.10095891
12	0xbecb0948	-0.3965552
13	0xbe4a0356	-0.19727835
14	0x3d5c1a2f	0.053735908
15	0xbe1738b2	-0.14767721
16	0x3e1e4fd6	0.15460142
17	0xbe128d74	-0.14311773
18	0xbdd134b4	-0.102151304
19	0xbd199adf	-0.037501212
20	0x3c89f7fa	0.016841877
21	0xbca2120e	-0.019784
22	0x3db8a2fd	0.090154625
23	0xbe376bea	-0.1791226
24	0x3dc83df5	0.09777442
25	0xbe22dbcc	-0.15904158
26	0x3c725f33	0.014793205
27	0xbc775fe0	-0.015098542
28	0x3dc2cc74	0.095116526
29	0x3e4c094e	0.19925424
30	0xbdb42abb	-0.08797213
31	0xbe1d8926	-0.15384349
32	0x3c97ec90	0.018545419
33	0x3e4a0ffc	0.1973266
34	0x3d6ede40	0.058317423
35	0xbf3f369e	-0.74692714
36	0x3eedc3e8	0.46438527
37	0x3dc47257	0.09592121
38	0xbe7b4fde	-0.24542186
39	0x3e1a9f98	0.15099943
40	0xbf476cd1	-0.77900416
41	0xbe732364	-0.23743969
42	0xbcfc4a88	-0.030797258
43	0x3e35bf96	0.17748865
44	0x3e8bc578	0.27299094
45	0xbe42a04c	-0.19006461
46	0xbdddb4cc	-0.108255
47	0xbce067f0	-0.027393311

bias f4 [3]
0	0x3f0c7ec4	0.5488093
1	0xbdaa9a51	-0.08330215
2	0xbe456b60	-0.19279242
