one/mlruns/0/models/m-192d4878c46e4eafb04ce1820ada2727/artifacts/data/model.pth (torch, 7689 bytes, 4 tensors)

weight f4 [16, 4]
0.017855538 -0.29961222 1.0822293 0.6226994 -0.22339523 -0.14492923 0.12138331 0.013096631
0.19368406 0.5298397 -0.63359594 -0.23244335 -0.09800416 -0.20172018 -0.062844336 0.042604804
-0.0719966 -0.39794683 0.8801248 1.0049775 -0.18042521 0.25089526 0.27536374 -0.16181968
-0.1075554 0.12930198 -0.396407 0.3772372 0.033991706 -0.2655971 0.920331 0.31713372
0.53869444 0.40351787 -0.24616908 -0.9404897 -0.49342644 0.23509544 -0.31182784 -0.044243813
0.059201717 -0.467237 -0.44294447 -0.31519985 -0.0040291343 -0.32017934 0.4567388 0.9683275
1.0922307 0.6523758 -0.6080469 -1.119787 0.37211996 0.99361956 0.049483836 -0.039338786
-0.38484782 -0.053286552 -0.040016055 0.42298895 -0.45968324 0.10293347 -0.29059988 -0.49821424
00000000: c745 923c c666 99be 7d86 8a3f 3a69 1f3f
00000010: b8c1 64be 5468 14be d097 f83d 4093 563c
00000020: 1d55 463e 93a3 073f 5833 22bf a105 6ebe
00000030: 68b6 c8bd bc8f 4ebe 88b4 80bd 6082 2e3d
00000040: f472 93bd b0bf cbbe dc4f 613f 1aa3 803f
00000050: 63c1 38be 5875 803e 7afc 8c3e 0fb4 25be
00000060: 0146 dcbd bd67 043e dcf5 cabe 3c25 c13e
00000070: e33a 0b3d 58fc 87be d09a 6b3f 5a5f a23e
00000080: e1e7 093f e599 ce3e bf13 7cbe efc3 70bf
00000090: 64a2 fcbe dcbc 703e e6a7 9fbe 0039 35bd
000000a0: 807d 723d b039 efbe 9ec9 e2be e061 a1be
000000b0: d406 84bb 8cee a3be abd9 e93e 50e4 773f
000000c0: 37ce 8b3f 1a02 273f f6a8 1bbf 2e55 8fbf
000000d0: 8286 be3e da5d 7e3f 90af 4a3d b521 21bd
000000e0: c60a c5be 0043 5abd e0e7 23bd 0292 d83e
000000f0: 9a5b ebbe c8ce d23d 82c9 94be f015 ffbe

bias f4 [16]
-0.8128984 0.32832885 0.25862917 0.17931122 -0.2968206 -0.43396276 -0.26753318 -0.6814941
0.17962609 -0.110204816 -0.43873084 0.14377946 0.62074685 0.5846339 0.46457052 -0.23607999
00000000: 1c1a 50bf b81a a83e 0b6b 843e 5c9d 373e
00000010: dff8 97be 5e30 debe 1cfa 88be 6676 2ebf
00000020: e7ef 373e 10b3 e1bd 54a1 e0be ec3a 133e
00000030: 44e9 1e3f 91aa 153f 30dc ed3e f4be 71be

weight f4 [3, 16]
-0.67090434 0.14166611 0.27545536 -0.084608406 -0.34676677 0.0909225 -0.106172375 -0.6568666
0.6358541 -0.037867397 -0.032177627 -0.7570387 0.53498286 0.29067665 -0.06407374 0.08209965
-0.2160678 0.22476113 -0.64351785 -0.069096416 -0.024121825 -0.05484396 0.020663869 0.11494232
0.18524611 0.23265421 0.2095778 -0.10565179 0.5210047 0.18142188 -0.011846125 -0.08602345
0.2664947 -0.017967492 -0.33935025 0.12998044 0.66249615 0.09235916 -0.012940406 0.69799066
-0.44618583 -0.24741203 0.23673362 0.5769735 -0.7468906 -0.15139568 0.0055915415 -0.13205785
00000000: 63c0 2bbf ec10 113e 7c08 8d3e 2c47 adbd
00000010: 6a8b b1be 9335 ba3d e770 d9bd 6928 28bf
00000020: 56c7 223f d81a 1bbd b0cc 03bd 4acd 41bf
00000030: a3f4 083f 92d3 943e 1839 83bd dc23 a83d
00000040: e140 5dbe c827 663e 96bd 24bf 6c82 8dbd
00000050: 229b c5bc 0fa4 60bd 4647 a93c e166 eb3d
00000060: 28b1 3d3e e83c 6e3e 909b 563e f75f d8bd
00000070: 9060 053f a8c6 393e 4016 42bc 102d b0bd
00000080: fe71 883e 9030 93bc 51bf adbe 9819 053e
00000090: 5999 293f cd26 bd3d ff03 54bc 84af 323f
000000a0: 7872 e4be 9459 7dbe 4c6a 723e 89b4 133f
000000b0: 3934 3fbf 7807 1bbe 4039 b73b 2c3a 07be

bias f4 [3]
0.33080098 0.14458479 -0.42326802
00000000: bf5e a93e 090e 143e 96b6 d8be
