one/mlruns/0/models/m-08188b37e061465296526f18df8b6c2a/artifacts/data/model.pth (torch, 7689 bytes, 4 tensors)

weight f4 [16, 4]
0.27452385 0.14991812 0.38989097 -0.12559159 -0.22339523 -0.14492923 0.12138331 0.013096631
0.051208727 0.26799214 -0.4512251 0.08932007 -0.09800416 -0.20172018 -0.062844336 0.042604804
0.021685243 -0.0132669825 0.2816361 0.32380727 0.016828232 0.4456972 0.08420194 -0.38450778
-0.04259903 0.19454461 -0.33276618 0.44100207 0.07498293 0.047174983 0.42251283 -0.21049565
0.3237794 -0.059219904 0.23253463 -0.32608038 -0.49342644 0.23509544 -0.31182784 -0.044243813
0.059201717 -0.467237 -0.44294447 -0.31519985 -0.046154253 -0.059641533 -0.0075895702 0.41879457
0.3390516 -0.08825642 0.05498368 -0.31416515 0.023061104 0.5048698 0.41227472 0.45202962
-0.38484782 -0.053286552 -0.040016055 0.42298895 -0.45968324 0.10293347 -0.29059988 -0.49821424
00000000: 648e 8c3e 2384 193e ca9f c73e 159b 00be
00000010: b8c1 64be 5468 14be d097 f83d 4093 563c
00000020: 3ec0 513d 4436 893e fa06 e7be 71ed b63d
00000030: 68b6 c8bd bc8f 4ebe 88b4 80bd 6082 2e3d
00000040: 40a5 b13c c25d 59bc 9b32 903e 11ca a53e
00000050: 5cdb 893c 6c32 e43e 1172 ac3d 34de c4be
00000060: 527c 2ebd b436 473e 5460 aabe 06cb e13e
00000070: a790 993d 8e3a 413d 9a53 d83e 2c8c 57be
00000080: 6ac6 a53e 9290 72bd 8f1d 6e3e 02f4 a6be
00000090: 64a2 fcbe dcbc 703e e6a7 9fbe 0039 35bd
000000a0: 807d 723d b039 efbe 9ec9 e2be e061 a1be
000000b0: 3e0c 3dbd ae4a 74bd eeb1 f8bb 3e6c d63e
000000c0: 2c98 ad3e c8bf b4bd 9136 613d 41da a0be
000000d0: a4ea bc3c 263f 013f ac15 d33e 6d70 e73e
000000e0: c60a c5be 0043 5abd e0e7 23bd 0292 d83e
000000f0: 9a5b ebbe c8ce d23d 82c9 94be f015 ffbe

bias f4 [16]
-0.3067518 0.32832885 0.060230963 0.17931122 0.17989895 -0.20840716 -0.2030496 -0.38467765
-0.281336 -0.110204816 -0.43873084 0.33001763 -0.26703867 0.009814564 0.46457052 -0.23607999
00000000: 920e 9dbe b81a a83e beb4 763d 5c9d 373e
00000010: 6e37 383e b068 55be 3cec 4fbe 78f4 c4be
00000020: 460b 90be 10b3 e1bd 54a1 e0be 12f8 a83e
00000030: 4bb9 88be 44cd 203c 30dc ed3e f4be 71be

weight f4 [3, 16]
-0.17167746 0.14166611 -0.14354406 -0.084608406 0.15661334 -0.08699598 -0.16478115 -0.1761809
0.11356876 -0.037867397 -0.032177627 -0.23449093 -0.0049095973 0.093625434 -0.06407374 0.08209965
-0.13100089 0.22476113 -0.086412765 -0.069096416 0.16156153 0.14304154 0.08081618 0.20185436
-0.20472242 0.23265421 0.2095778 0.22821233 -0.030702762 0.07859225 -0.011846125 -0.08602345
-0.06731743 -0.017967492 -0.055726923 0.12998044 0.1381834 0.1889344 0.044925846 0.21941769
0.03862434 -0.24741203 0.23673362 -0.036823686 -0.048557498 -0.004872809 0.0055915415 -0.13205785
00000000: 37cc 2fbe ec10 113e 37fd 12be 2c47 adbd
00000010: 3f5f 203e f32a b2bd 64bc 28be c468 34be
00000020: bd96 e83d d81a 1bbd b0cc 03bd 641e 70be
00000030: b0e0 a0bb b1be bf3d 1839 83bd dc23 a83d
00000040: 1925 06be c827 663e 2df9 b0bd 6c82 8dbd
00000050: 6370 253e 7b79 123e f482 a53d e9b2 4e3e
00000060: c1a2 51be e83c 6e3e 909b 563e 7eb0 693e
00000070: 5c84 fbbc f9f4 a03d 4016 42bc 102d b0bd
00000080: b9dd 89bd 9030 93bc ea41 64bd 9819 053e
00000090: f37f 0d3e 0578 413e 2a04 383d 08af 603e
000000a0: 8e34 1e3d 9459 7dbe 4c6a 723e 6fd4 16bd
000000b0: 3ae4 46bd 16ac 9fbb 4039 b73b 2c3a 07be

bias f4 [3]
0.0249059 -0.16681994 -0.0040164376
00000000: 7507 cc3c d9d2 2abe 529c 83bb
