one/mlruns/0/models/m-0986f5bc96064fb4aceaafd08b3f0cbf/artifacts/data/model.pth (torch, 7689 bytes, 4 tensors)

weight f4 [16, 4]
000000 10 5d d0 3a 4d c7 7b be 67 b5 66 3f 5f 40 db 3e
       0.0015896875 -0.24587746 0.9012055 0.4282255
000010 b8 c1 64 be 54 68 14 be d0 97 f8 3d 40 93 56 3c
       -0.22339523 -0.14492923 0.12138331 0.013096631
000020 58 65 1a 3e a7 72 dd 3e f8 57 07 bf 77 59 84 bd
       0.15077722 0.43251535 -0.52868605 -0.064623766
000030 68 b6 c8 bd bc 8f 4e be 88 b4 80 bd 60 82 2e 3d
       -0.09800416 -0.20172018 -0.062844336 0.042604804
000040 01 a9 8a bd 84 48 a1 be 9f 0d 36 3f 8c 9c 4a 3f
       -0.06770516 -0.31500638 0.71114534 0.7914512
000050 02 ae 15 be 91 fa 86 3e 79 87 8f 3e fe cc 35 be
       -0.1461716 0.26363042 0.28033045 -0.1775398
000060 85 ec db bd ab 94 04 3e f1 df ca be 32 3b c1 3e
       -0.10738472 0.12947337 -0.3962398 0.37740475
000070 3e 69 cb 3c f7 75 6b be cc 29 58 3f 44 de 64 3e
       0.024830457 -0.22994219 0.84438777 0.22350413
000080 59 ef e2 3e 1f f6 96 3e b9 11 14 be 38 38 42 bf
       0.44323233 0.2948465 -0.14459886 -0.75867033
000090 64 a2 fc be dc bc 70 3e e6 a7 9f be 00 39 35 bd
       -0.49342644 0.23509544 -0.31182784 -0.044243813
0000a0 80 7d 72 3d b0 39 ef be 9e c9 e2 be e0 61 a1 be
       0.059201717 -0.467237 -0.44294447 -0.31519985
0000b0 60 ed 0d bb b4 7e 8c be f5 e9 bf 3e 10 73 58 3f
       -0.002165638 -0.27440417 0.37483183 0.8455057
0000c0 81 60 5f 3f 43 a5 ec 3e 42 a6 ec be e3 42 68 bf
       0.8725663 0.46219835 -0.46220595 -0.9072706
0000d0 6f a1 80 3e 27 d8 5a 3f a6 3f 07 3e df a7 bb 3d
       0.25123164 0.8548607 0.13207874 0.09162878
0000e0 c6 0a c5 be 00 43 5a bd e0 e7 23 bd 02 92 d8 3e
       -0.38484782 -0.053286552 -0.040016055 0.42298895
0000f0 9a 5b eb be c8 ce d2 3d 82 c9 94 be f0 15 ff be
       -0.45968324 0.10293347 -0.29059988 -0.49821424

bias f4 [16]
000000 71 ec 35 bf b8 1a a8 3e 50 9e 42 3e 5c 9d 37 3e
       -0.71063906 0.32832885 0.19005704 0.17931122
000010 b6 6d 01 be 9d 13 ca be e7 e3 88 be 31 01 1f bf
       -0.12639508 -0.3946809 -0.26736376 -0.6211119
000020 28 ef 11 bc 10 b3 e1 bd 54 a1 e0 be 5c 1c 60 3e
       -0.008907117 -0.110204816 -0.43873084 0.21885818
000030 e2 be b5 3e 19 ba c7 3e 30 dc ed 3e f4 be 71 be
       0.35497195 0.3900917 0.46457052 -0.23607999

weight f4 [3, 16]
000000 46 11 11 bf ec 10 11 3e f1 8d 2c 3e 2c 47 ad bd
       -0.5666698 0.14166611 0.16851021 -0.084608406
000010 e8 a6 89 be 1c 8e c5 3d 9f c1 d9 bd b5 c7 17 bf
       -0.26885152 0.09646246 -0.106326334 -0.59289104
000020 cd 61 05 3f d8 1a 1b bd b0 cc 03 bd 6e f8 2c bf
       0.5210236 -0.037867397 -0.032177627 -0.67566574
000030 d9 75 df 3e d3 45 57 3e 18 39 83 bd dc 23 a8 3d
       0.43644598 0.2102273 -0.06407374 0.08209965
000040 b9 3f 1a be c8 27 66 3e 2c 5b e1 be 6c 82 8d bd
       -0.15063371 0.22476113 -0.4401487 -0.069096416
000050 bf f0 ba 3d a9 dd 6f bc ae 92 aa 3c 0a 77 4c 3e
       0.0912795 -0.01464025 0.020821895 0.19967285
000060 bf 53 76 3d e8 3c 6e 3e 90 9b 56 3e 67 b7 29 3d
       0.06013846 0.23265421 0.2095778 0.04143467
000070 80 31 a5 3e 26 86 fb 3d 40 16 42 bc 10 2d b0 bd
       0.32264328 0.12281446 -0.011846125 -0.08602345
000080 91 79 21 3e 90 30 93 bc 5a e3 a4 be 98 19 05 3e
       0.1576903 -0.017967492 -0.32204705 0.12998044
000090 0a 02 08 3f 4a 5a 88 3d 5d 86 51 bc db 8d 18 3f
       0.5312811 0.06657846 -0.012788382 0.59591454
0000a0 59 00 9e be 94 59 7d be 4c 6a 72 3e 27 23 e6 3e
       -0.3085964 -0.24741203 0.23673362 0.44948694
0000b0 c7 27 11 bf da b0 9f bd 40 39 b7 3b 2c 3a 07 be
       -0.5670132 -0.07797404 0.0055915415 -0.13205785

bias f4 [3]
000000 51 64 a1 3e 6a ee 19 3d 97 cd b1 be
       0.31521848 0.037580885 -0.34727165
