one/mlruns/0/models/m-d2a6ec5d8f9d42feae0e0d0971e5cc4d/artifacts/data/model.pth (torch, 7689 bytes, 4 tensors)

weight f4 [16, 4]
0.006525457 -0.26387763 0.96888906 0.5010564 -0.22339523 -0.14492923 0.12138331 0.013096631
0.16193168 0.46313486 -0.5691546 -0.12674841 -0.09800416 -0.20172018 -0.062844336 0.042604804
-0.0738119 -0.34582084 0.7743754 0.87223655 -0.15531088 0.26109365 0.27943173 -0.17194138
-0.10749741 0.1293602 -0.39635018 0.37729412 0.025472708 -0.24462326 0.8732916 0.25929773
0.4778992 0.33362418 -0.18186112 -0.82442313 -0.49342644 0.23509544 -0.31182784 -0.044243813
0.059201717 -0.467237 -0.44294447 -0.31519985 -0.0078646 -0.2953731 0.40455 0.89041144
0.9596916 0.5329774 -0.5191512 -0.9903416 0.29664028 0.903459 0.10250809 0.044104256
-0.38484782 -0.053286552 -0.040016055 0.42298895 -0.45968324 0.10293347 -0.29059988 -0.49821424
00000000: 80d3 d53b f81a 87be 1d09 783f 3b45 003f
00000010: b8c1 64be 5468 14be d097 f83d 4093 563c
00000020: 6bd1 253e 0320 ed3e 1eb4 11bf 56ca 01be
00000030: 68b6 c8bd bc8f 4ebe 88b4 80bd 6082 2e3d
00000040: b22a 97bd 6e0f b1be 773d 463f e54a 5f3f
00000050: d109 1fbe 11ae 853e ad11 8f3e 6711 30be
00000060: 9a27 dcbd 0077 043e 69ee cabe b22c c13e
00000070: 24ac d03c 857e 7abe 0a90 5f3f acc2 843e
00000080: 34af f43e cad0 aa3e cd39 3abe 650d 53bf
00000090: 64a2 fcbe dcbc 703e e6a7 9fbe 0039 35bd
000000a0: 807d 723d b039 efbe 9ec9 e2be e061 a1be
000000b0: 86da 00bc 253b 97be 2d21 cf3e 01f2 633f
000000c0: 59ae 753f 3571 083f 18e7 04bf 0787 7dbf
000000d0: 3ce1 973e 1749 673f c3ef d13d aaa6 343d
000000e0: c60a c5be 0043 5abd e0e7 23bd 0292 d83e
000000f0: 9a5b ebbe c8ce d23d 82c9 94be f015 ffbe

bias f4 [16]
-0.74431986 0.32832885 0.21079622 0.17931122 -0.18672466 -0.40518233 -0.2674756 -0.6439695
0.05547816 -0.110204816 -0.43873084 0.18908022 0.453828 0.45798287 0.46457052 -0.23607999
00000000: bf8b 3ebf b81a a83e f7da 573e 5c9d 373e
00000010: c034 3fbe 0f74 cfbe 90f2 88be 2fdb 24bf
00000020: 113d 633d 10b3 e1bd 54a1 e0be 3f9e 413e
00000030: 255c e83e bb7c ea3e 30dc ed3e f4be 71be

weight f4 [3, 16]
-0.6042646 0.14166611 0.20742929 -0.084608406 -0.29763323 0.094519794 -0.10622467 -0.6171584
0.5628855 -0.037867397 -0.032177627 -0.705958 0.47320002 0.2400733 -0.06407374 0.08209965
-0.17884208 0.22476113 -0.5110777 -0.069096416 0.043622963 -0.03098461 0.02071755 0.16238572
0.11180706 0.23265421 0.2095778 -0.023261271 0.40383133 0.14408796 -0.011846125 -0.08602345
0.20044723 -0.017967492 -0.33187112 0.12998044 0.58282536 0.076713994 -0.012888762 0.6372304
-0.36335507 -0.24741203 0.23673362 0.50089663 -0.6386233 -0.104800634 0.0055915415 -0.13205785
00000000: 16b1 1abf ec10 113e 5868 543e 2c47 adbd
00000010: 6263 98be 9893 c13d 528c d9bd 18fe 1dbf
00000020: 4419 103f d81a 1bbd b0cc 03bd aab9 34bf
00000030: 4647 f23e c6d5 753e 1839 83bd dc23 a83d
00000040: 6122 37be c827 663e fdd5 02bf 6c82 8dbd
00000050: fead 323d 70d3 fdbc dab7 a93c 7148 263e
00000060: 1afb e43d e83c 6e3e 909b 563e 6c8e bebc
00000070: fbc2 ce3e cb8b 133e 4016 42bc 102d b0bd
00000080: 0a42 4d3e 9030 93bc 03eb a9be 9819 053e
00000090: 0b34 153f 3a1c 9d3d 632b 53bc 8821 233f
000000a0: ad09 babe 9459 7dbe 4c6a 723e c33a 003f
000000b0: d17c 23bf b7a1 d6bd 4039 b73b 2c3a 07be

bias f4 [3]
0.3223842 0.081286244 -0.37885243
00000000: 8b0f a53e 6779 a63d f2f8 c1be
