one/mlruns/0/models/m-48496fc165834b35a9fe7e49d8f9c946/artifacts/data/model.pth (torch, 7689 bytes, 4 tensors)

weight f4 [16, 4]
00000000: e08c 0d3d 50fd f9be 2813 f2be 5859 b13e
00000010: 6a72 ff3d e184 91be e216 c83c 2610 953e
00000020: ccb1 ddbe 0074 db3c 7051 4d3d e29a 9fbe
00000030: e983 56be d839 e03e 53dc 3a3d 2d13 a8be
00000040: 2c75 37be 7ed7 ed3c 0054 b43e fb4d ac3d
00000050: 35b5 3fbe e567 c6bd 085e 993e 0a35 4f3c
00000060: 6d7f 693e ada8 753e 712b 183e c306 3cbe
00000070: 5856 d53d 70a5 79be 38c0 d7bd b883 a93d
00000080: e4e0 4abe 766b 023f 23a4 fabd 8868 693e
00000090: 80ce 4d3d 5050 86bd 1aa4 acbe 703f acbd
000000a0: 44cc 9f3e 70df 873e c45d 2f3e 590e e93d
000000b0: 6214 fdbe 4639 ef3e 1877 a73d fa03 fdbe
000000c0: a598 ca3e 114e 4abe b1cc 7d3e 69ed 953e
000000d0: 6287 d2be 1ec4 e03e e05d f53d 1afc c4be
000000e0: e7fa 41be 9796 d8bd cb12 d83b 5386 ba3e
000000f0: 647e cfbe e6f2 b2be 30f7 56be 7e38 94be
0.034558177 -0.48826075 -0.4728024 0.34638476 0.124729946 -0.2842169 0.024424974 0.29113883
-0.4329971 0.026788712 0.050126493 -0.31172854 -0.20948757 0.4379413 0.045620274 -0.3282713
-0.17915791 0.029033419 0.35220337 0.08413311 -0.18721469 -0.09687785 0.29954553 0.012646923
0.22802515 0.23990126 0.14860322 -0.18361954 0.104168594 -0.24379516 -0.1053471 0.082770765
-0.19812351 0.5094522 -0.12238338 0.22793782 0.050245762 -0.06558287 -0.3371895 -0.08410537
0.3121053 0.26537657 0.17125612 0.1137969 -0.49429613 0.46723384 0.08177012 -0.49417096
0.39569584 -0.19756342 0.24785115 0.29282692 -0.41118914 0.43899626 0.11980796 -0.38473588
-0.18943368 -0.10575598 0.006594037 0.36430606 -0.40526116 -0.34950942 -0.20992732 -0.2894935

bias f4 [16]
00000000: a0fb ce3c 6d09 983e f43e fdbe cbb2 a23e
00000010: fcd0 de3e ab86 57be 4e47 a0be 60be b03c
00000020: acbb ef3e 10d0 953e ae82 703e ac15 04be
00000030: 55f0 13be a88d 2e3e d87f 933e a051 2f3e
0.025266469 0.2969469 -0.49462092 0.31777033 0.43518817 -0.21047466 -0.313044 0.021575153
0.4682287 0.29260302 0.2348735 -0.12898892 -0.14447148 0.17046225 0.28808475 0.17120981

weight f4 [3, 16]
00000000: 78cc 35bd 188a a0be 58f3 64be 767a 39bd
00000010: 2931 4dbe 9d19 d03d afb6 0dbe 14ba 413e
00000020: 1169 683e 54b0 2e3e 027e 46bd 8cc3 cebd
00000030: 3689 0dbd 5603 4abe 7dd5 d13d b238 17be
00000040: d64f 1e3e 3ae2 59be b434 d1bd f264 18be
00000050: b063 99bd 35bf f63c f301 803c ea6b 37be
00000060: 4d2f 9bbd ccdb 22be ff09 3ebd e05f 77bc
00000070: fdd9 f53c 4e09 4c3e 3bf4 37bd 2689 1dbe
00000080: 90ec 973c 083b babd 40de 6e3d f1ba 13be
00000090: e970 9a3d 2711 263d f185 26be 989f 1a3e
000000a0: a549 69be 6423 73be 52e0 103c 96bf 353e
000000b0: dde3 1f3e 4ca0 42be 198a 1ebe f067 e0bc
-0.04438445 -0.31355357 -0.22358453 -0.045282803 -0.20038284 0.10161135 -0.1383922 0.1891864
0.2269633 0.17059451 -0.048460014 -0.10095891 -0.034554683 -0.19727835 0.10245798 -0.14767721
0.15460142 -0.21277705 -0.102151304 -0.14882258 -0.07489717 0.030120471 0.01562593 -0.1791226
-0.07577381 -0.15904158 -0.04639625 -0.015098542 0.030011171 0.19925424 -0.04491065 -0.15384349
0.018545419 -0.090932906 0.058317423 -0.14426781 0.07541067 0.0405437 -0.16262032 0.15099943
-0.22782 -0.23743969 0.008842545 0.17748865 0.15614267 -0.19006461 -0.15482368 -0.027393311

bias f4 [3]
00000000: edd8 a33e 50cb 78be 3021 5f3d
0.3200144 -0.24296308 0.05447501
