one/mlruns/0/models/m-995d9db53a244e4ab935530453329ca8/artifacts/data/model.pth (torch, 7689 bytes, 4 tensors)

weight f4 [16, 4]
00000000: e08c 0d3d 50fd f9be 2813 f2be 5859 b13e
00000010: db96 193e 490f debe 97fe a33e 544d 193f
00000020: ccb1 ddbe 0074 db3c 7051 4d3d e29a 9fbe
00000030: b8fa 023d 4bac 333f 0dd6 74be 71af 22bf
00000040: bb66 26be 6995 05be b932 233f d0f8 c33e
00000050: b69b 7ebe eb6e 23be e65a 753e 5123 40bd
00000060: 9ba8 843e b576 773e aa5c 343e 602e 4abe
00000070: 5856 d53d 70a5 79be 38c0 d7bd b883 a93d
00000080: 8c94 ecbc 2b97 403f be87 cdbe 7b3c 93bd
00000090: 80ce 4d3d 5050 86bd 1aa4 acbe 703f acbd
000000a0: 2e67 513e 472b d43d 1a1d 4b3e 7cdb 403e
000000b0: 6214 fdbe 4639 ef3e 1877 a73d fa03 fdbe
000000c0: e7c4 4d3e 292c ecbe c0f5 0a3f d0ae 193f
000000d0: 6287 d2be 1ec4 e03e e05d f53d 1afc c4be
000000e0: 2dd6 7fbe 2165 2cbe 635c 51bd b300 9d3e
000000f0: 647e cfbe e6f2 b2be 30f7 56be 7e38 94be
0.034558177 -0.48826075 -0.4728024 0.34638476 0.14998953 -0.43371037 0.32030174 0.5988362
-0.4329971 0.026788712 0.050126493 -0.31172854 0.031977385 0.70184773 -0.23909779 -0.6354895
-0.16250126 -0.13045277 0.6374927 0.38275766 -0.24864087 -0.1596028 0.23960456 -0.04690868
0.25909886 0.24166377 0.17613474 -0.19744253 0.104168594 -0.24379516 -0.1053471 0.082770765
-0.028879426 0.75230664 -0.40142626 -0.0718927 0.050245762 -0.06558287 -0.3371895 -0.08410537
0.20449516 0.10359817 0.1983532 0.18833727 -0.49429613 0.46723384 0.08177012 -0.49417096
0.20094644 -0.46127442 0.54281235 0.6003237 -0.41118914 0.43899626 0.11980796 -0.38473588
-0.24984045 -0.16835453 -0.051113497 0.30664596 -0.40526116 -0.34950942 -0.20992732 -0.2894935

bias f4 [16]
00000000: a0fb ce3c 009f 333e f43e fdbe 1534 153f
00000010: 31d6 9f3e 969d 8bbe 73aa 89be 60be b03c
00000020: d0c2 333f 10d0 953e 36b1 af3d ac15 04be
00000030: 382e cabe a88d 2e3e ffac 673e a051 2f3e
0.025266469 0.17541122 -0.49462092 0.58282596 0.31218103 -0.27268666 -0.26887855 0.021575153
0.70219135 0.29260302 0.08578722 -0.12898892 -0.39488387 0.17046225 0.22624587 0.17120981

weight f4 [3, 16]
00000000: 78cc 35bd b61f 1bbf 58f3 64be 2226 493e
00000010: d814 f5be f404 3e3d b5e9 afbd 14ba 413e
00000020: 84bf 033f 54b0 2e3e 2fe8 17be 8cc3 cebd
00000030: 4449 97be 5603 4abe c02e 673d b238 17be
00000040: d64f 1e3e 096f dabd b434 d1bd 7ad8 7cbe
00000050: d91c aa3d 3a5f 8bbc 8cbf 423d ea6b 37be
00000060: d549 39be ccdb 22be 319c 8ebb e05f 77bc
00000070: a2c9 e03d 4e09 4c3e 3c45 afbd 2689 1dbe
00000080: 90ec 973c ca55 453d 40de 6e3d 00f5 e1be
00000090: 5c78 8b3e 5026 be3d 052b 4dbe 989f 1a3e
000000a0: fde8 06bf 6423 73be 4cd1 9ebc 96bf 353e
000000b0: f2e3 523e 4ca0 42be 6400 e3bd f067 e0bc
-0.04438445 -0.6059526 -0.22358453 0.19643453 -0.47867465 0.046391442 -0.08589498 0.1891864
0.51464105 0.17059451 -0.14834665 -0.10095891 -0.29548085 -0.19727835 0.05644107 -0.14767721
0.15460142 -0.106657095 -0.102151304 -0.24691954 0.083062835 -0.017013181 0.047545955 -0.1791226
-0.18094571 -0.15904158 -0.0043521156 -0.015098542 0.109759584 0.19925424 -0.08558127 -0.15384349
0.018545419 0.048177518 0.058317423 -0.44132233 0.27240264 0.09284651 -0.20035942 0.15099943
-0.5269926 -0.23743969 -0.01938691 0.17748865 0.20594767 -0.19006461 -0.11084059 -0.027393311

bias f4 [3]
00000000: f82e 003f 42d3 2dbe 8863 b5bd
0.5007167 -0.1697512 -0.08856875
