one/mlruns/0/models/m-b9c22f2bbf73438b9eb98b7e9b2bf9f2/artifacts/data/model.pth (torch, 7689 bytes, 4 tensors)

weight f4 [16, 4]
000000 e0 8c 0d 3d 50 fd f9 be 28 13 f2 be 58 59 b1 3e
       0.034558177 -0.48826075 -0.4728024 0.34638476
000010 d0 0f 0f 3e 23 88 0a bf 17 2f 14 3f 2d e9 6a 3f
       0.13970876 -0.5411398 0.57884353 0.9176205
000020 cc b1 dd be 00 74 db 3c 70 51 4d 3d e2 9a 9f be
       -0.4329971 0.026788712 0.050126493 -0.31172854
000030 53 69 e3 3e 7a 5f 83 3f 88 d8 24 bf 1d b6 99 bf
       0.44416294 1.0263512 -0.643929 -1.2008702
000040 e4 af 3e be 25 e2 70 be cf 37 61 3f 1e 81 31 3f
       -0.18621784 -0.23523767 0.8797578 0.6933764
000050 55 3e 81 be e6 64 27 be ed 91 71 3e 48 2e 4f bd
       -0.25242868 -0.16347083 0.23590823 -0.050581247
000060 c2 2a ad 3e cb 37 99 3e 03 b1 20 3e ba fb ae be
       0.33821684 0.2992538 0.15692525 -0.34176427
000070 58 56 d5 3d 70 a5 79 be 38 c0 d7 bd b8 83 a9 3d
       0.104168594 -0.24379516 -0.1053471 0.082770765
000080 e7 20 78 3e 8f 40 77 3f 2f 27 19 bf ba 38 c6 be
       0.24231301 0.96582884 -0.59825414 -0.38715154
000090 80 ce 4d 3d 50 50 86 bd 1a a4 ac be 70 3f ac bd
       0.050245762 -0.06558287 -0.3371895 -0.08410537
0000a0 a8 2e 53 3e 51 56 e9 3c b9 95 90 3e 45 2a 80 3e
       0.20623267 0.028483542 0.2823923 0.2503225
0000b0 62 14 fd be 46 39 ef 3e 18 77 a7 3d fa 03 fd be
       -0.49429613 0.46723384 0.08177012 -0.49417096
0000c0 df e0 4a 3e 14 1e 0c bf 2b bf 52 3f e5 dc 64 3f
       0.19812344 -0.54733396 0.8232295 0.8939956
0000d0 62 87 d2 be 1e c4 e0 3e e0 5d f5 3d 1a fc c4 be
       -0.41118914 0.43899626 0.11980796 -0.38473588
0000e0 4f d3 81 be 01 59 30 be ad ef 5f bd ad 2e 9b 3e
       -0.25356528 -0.17221452 -0.054671932 0.30309048
0000f0 64 7e cf be e6 f2 b2 be 30 f7 56 be 7e 38 94 be
       -0.40526116 -0.34950942 -0.20992732 -0.2894935

bias f4 [16]
000000 a0 fb ce 3c 72 28 3e bc f4 3e fd be d6 ca 87 3f
       0.025266469 -0.011606323 -0.49462092 1.0608776
000010 cf 45 f8 3d 6b 94 8d be 62 ad 09 be 60 be b0 3c
       0.1212269 -0.27652296 -0.13445047 0.021575153
000020 fc da 82 3f 10 d0 95 3e 00 55 95 3d ac 15 04 be
       1.0223079 0.29260302 0.07291603 -0.12898892
000030 13 f5 01 bf a8 8d 2e 3e 64 c5 63 3e a0 51 2f 3e
       -0.5076458 0.17046225 0.22243267 0.17120981

weight f4 [3, 16]
000000 78 cc 35 bd 14 9e 4c bf 58 f3 64 be 82 0c c4 3e
       -0.04438445 -0.7992871 -0.22358453 0.38290793
000010 05 88 24 bf 83 12 30 3d 7a c3 29 bc 14 ba 41 3e
       -0.6427005 0.042986404 -0.010361547 0.1891864
000020 f8 82 38 3f 54 b0 2e 3e 85 d2 5f be 8c c3 ce bd
       0.7207484 0.17059451 -0.2185765 -0.10095891
000030 f6 9e e0 be 56 03 4a be 5c 8f 5b 3d b2 38 17 be
       -0.43871278 -0.19727835 0.053603515 -0.14767721
000040 d6 4f 1e 3e a7 d7 3f be b4 34 d1 bd 77 df ab 3d
       0.15460142 -0.18734609 -0.102151304 0.08392232
000050 ce ad 44 bd 6f 2e a3 bc c2 ad d9 3d ea 6b 37 be
       -0.048017316 -0.019919602 0.10628845 -0.1791226
000060 4a 75 71 3e cc db 22 be 03 10 8e 3c e0 5f 77 bc
       0.23579898 -0.15904158 0.01734162 -0.015098542
000070 cb a1 9e 3d 4e 09 4c 3e 15 68 b4 bd 26 89 1d be
       0.07745703 0.19925424 -0.088089146 -0.15384349
000080 90 ec 97 3c 1e e2 92 3e 40 de 6e 3d 20 de 69 bf
       0.018545419 0.2868814 0.058317423 -0.9135456
000090 3f 85 12 3f 3b c1 c4 3d 7e 17 89 be 98 9f 1a 3e
       0.5723457 0.09607168 -0.26775736 0.15099943
0000a0 2e df 68 bf 64 23 73 be f5 36 00 bd 96 bf 35 3e
       -0.90965545 -0.23743969 -0.03130241 0.17748865
0000b0 7d 8b 9f 3e 4c a0 42 be 75 72 dd bd f0 67 e0 bc
       0.3116111 -0.19006461 -0.108128466 -0.027393311

bias f4 [3]
000000 2d 34 13 3f e7 ce 4d bd 21 f4 70 be
       0.5750149 -0.050246146 -0.23530628
