one/mlruns/0/models/m-5b5510371bed43bba87db03428776576/artifacts/data/model.pth (torch, 7689 bytes, 4 tensors)

weight f4 [16, 4]
000000 e0 8c 0d 3d 50 fd f9 be 28 13 f2 be 58 59 b1 3e
       0.034558177 -0.48826075 -0.4728024 0.34638476
000010 8a d2 1b 3e 69 5f f1 be ee cd c6 3e e9 77 2c 3f
       0.15217033 -0.47143105 0.38828987 0.6737047
000020 cc b1 dd be 00 74 db 3c 70 51 4d 3d e2 9a 9f be
       -0.4329971 0.026788712 0.050126493 -0.31172854
000030 af 16 dc 3d 6c 56 46 3f ff 42 a5 be f3 46 3d bf
       0.10746514 0.7747562 -0.32277676 -0.73936385
000040 3d a8 2a be 98 c2 2f be 1e 3d 33 3f b5 55 e8 3e
       -0.1666574 -0.17164075 0.7001513 0.4537789
000050 57 83 80 be fd e6 25 be e4 fe 72 3e d7 83 49 bd
       -0.25100204 -0.16201396 0.23730046 -0.049197998
000060 b5 de 8e 3e d5 89 83 3e d6 a8 36 3e ad ad 60 be
       0.27904287 0.25691095 0.17837843 -0.21941252
000070 58 56 d5 3d 70 a5 79 be 38 c0 d7 bd b8 83 a9 3d
       0.104168594 -0.24379516 -0.1053471 0.082770765
000080 8a 0c 9e 3c a9 c5 4d 3f 59 fc e8 be 35 c0 0e be
       0.019293088 0.8037973 -0.45505026 -0.13940509
000090 80 ce 4d 3d 50 50 86 bd 1a a4 ac be 70 3f ac bd
       0.050245762 -0.06558287 -0.3371895 -0.08410537
0000a0 29 fd 51 3e 59 bb b0 3d 9c a7 67 3e 2c d8 5e 3e
       0.20506729 0.08629484 0.22622532 0.2176215
0000b0 62 14 fd be 46 39 ef 3e 18 77 a7 3d fa 03 fd be
       -0.49429613 0.46723384 0.08177012 -0.49417096
0000c0 e0 22 5a 3e 35 69 f7 be 75 ec 1f 3f 96 59 2d 3f
       0.21302366 -0.48322454 0.6247018 0.6771482
0000d0 62 87 d2 be 1e c4 e0 3e e0 5d f5 3d 1a fc c4 be
       -0.41118914 0.43899626 0.11980796 -0.38473588
0000e0 6c 1b 81 be e5 db 2e be 50 72 5a bd 34 de 9b 3e
       -0.25216234 -0.1707607 -0.053331673 0.30442965
0000f0 64 7e cf be e6 f2 b2 be 30 f7 56 be 7e 38 94 be
       -0.40526116 -0.34950942 -0.20992732 -0.2894935

bias f4 [16]
000000 a0 fb ce 3c a5 58 0b 3e f4 3e fd be c0 69 2b 3f
       0.025266469 0.13608034 -0.49462092 0.66958237
000010 18 2c 8a 3e 09 d7 8c be 8d f6 73 be 60 be b0 3c
       0.26986766 -0.2750781 -0.2382452 0.021575153
000020 58 68 43 3f 10 d0 95 3e 37 87 a1 3d ac 15 04 be
       0.7633109 0.29260302 0.07887118 -0.12898892
000030 51 1c d4 be a8 8d 2e 3e e4 3d 65 3e a0 51 2f 3e
       -0.41427854 0.17046225 0.2238689 0.17120981

weight f4 [3, 16]
000000 78 cc 35 bd 1a 55 2a bf 58 f3 64 be b4 c9 76 3e
       -0.04438445 -0.66536105 -0.22358453 0.24100381
000010 c7 02 08 bf 4a 53 35 3d a0 b0 ba bd 14 ba 41 3e
       -0.5312924 0.044268884 -0.0911572 0.1891864
000020 c0 62 11 3f 54 b0 2e 3e 22 b0 36 be 8c c3 ce bd
       0.56791306 0.17059451 -0.17840627 -0.10095891
000030 5b 17 af be 56 03 4a be 05 f0 5f 3d b2 38 17 be
       -0.34197506 -0.19727835 0.05467226 -0.14767721
000040 d6 4f 1e 3e a1 65 ca bd b4 34 d1 bd ee fa 43 be
       0.15460142 -0.098826654 -0.102151304 -0.19138691
000050 c6 11 ae 3d b7 36 9a bc 41 85 84 3d ea 6b 37 be
       0.08499484 -0.018824918 0.06470729 -0.1791226
000060 67 4b ce bd cc db 22 be 46 ae cc 3b e0 5f 77 bc
       -0.100729756 -0.15904158 0.006246361 -0.015098542
000070 fe 92 e8 3d 4e 09 4c 3e db 78 b2 bd 26 89 1d be
       0.113561615 0.19925424 -0.087144576 -0.15384349
000080 90 ec 97 3c 44 e1 c0 3d 40 de 6e 3d 9d ae 0b bf
       0.018545419 0.09417966 0.058317423 -0.54563314
000090 fe 22 ab 3e 5c 44 c2 3d 54 dc 5d be 98 9f 1a 3e
       0.33425134 0.09485695 -0.2166608 0.15099943
0000a0 86 86 1d bf 64 23 73 be 0d 4e d3 bc 96 bf 35 3e
       -0.6153339 -0.23743969 -0.025794053 0.17748865
0000b0 43 74 68 3e 4c a0 42 be 03 8a df bd f0 67 e0 bc
       0.227006 -0.19006461 -0.109149955 -0.027393311

bias f4 [3]
000000 5f ed 04 3f ab 9f 0b be 6f 01 04 be
       0.519247 -0.13635127 -0.12891172
