one/mlruns/0/models/m-ef0cf28b61b747059a26d7ca1e6034bf/artifacts/data/model.pth (torch, 7689 bytes, 4 tensors)

weight f4 [16, 4]
0	0x3adfbd71	0.0017070008
1	0xbe648667	-0.22316895
2	0x3f53eab0	0.8277998
3	0x3eb32db1	0.34995797
4	0xbe64c1b8	-0.22339523
5	0xbe146854	-0.14492923
6	0x3df897d0	0.12138331
7	0x3c569340	0.013096631
8	0x3e01ba4d	0.12668724
9	0x3ec9711d	0.3934411
10	0xbf026537	-0.5093569
11	0xbccb4486	-0.024812948
12	0xbdc8b668	-0.09800416
13	0xbe4e8fbc	-0.20172018
14	0xbd80b488	-0.062844336
15	0x3d2e8260	0.042604804
16	0xbd6521db	-0.05594049
17	0xbe8e2bb3	-0.27767715
18	0x3f24acf2	0.64326394
19	0x3f34618b	0.7046134
20	0xbe0b83c2	-0.1362448
21	0x3e88898a	0.26667434
22	0x3e90760f	0.28215072
23	0xbe39eeb3	-0.18157463
24	0xbddb50a4	-0.1070874
25	0x3e04e2f6	0.12977204
26	0xbecab9c2	-0.39594847
27	0x3ec16173	0.3776966
28	0x3cc05b8b	0.023481151
29	0xbe595085	-0.21222122
30	0x3f4f5c70	0.81000423
31	0x3e3af488	0.18257344
32	0x3ed60f4c	0.41808546
33	0x3e8463ad	0.25857297
34	0xbdd27ed6	-0.10278098
35	0xbf3163e0	-0.6929302
36	0xbefca264	-0.49342644
37	0x3e70bcdc	0.23509544
38	0xbe9fa7e6	-0.31182784
39	0xbd353900	-0.044243813
40	0x3d727d80	0.059201717
41	0xbeef39b0	-0.467237
42	0xbee2c99e	-0.44294447
43	0xbea161e0	-0.31519985
44	0x3b878354	0.0041355286
45	0xbe7ec262	-0.24878839
46	0x3eaebe1a	0.3412941
47	0x3f4c58d1	0.79823023
48	0x3f4655d9	0.77474743
49	0x3ec588c2	0.385809
50	0xbeccd129	-0.40003327
51	0xbf511b45	-0.81682235
52	0x3e540a57	0.2070707
53	0x3f4eae2c	0.80734515
54	0x3e26fb65	0.16306837
55	0x3e0f11f5	0.13971694
56	0xbec50ac6	-0.38484782
57	0xbd5a4300	-0.053286552
58	0xbd23e7e0	-0.040016055
59	0x3ed89202	0.42298895
60	0xbeeb5b9a	-0.45968324
61	0x3dd2cec8	0.10293347
62	0xbe94c982	-0.29059988
63	0xbeff15f0	-0.49821424

bias f4 [16]
0	0xbf2cf570	-0.6756201
1	0x3ea81ab8	0.32832885
2	0x3e228435	0.15870745
3	0x3e379d5c	0.17931122
4	0xbd830baf	-0.06398713
5	0xbec5299b	-0.38508305
6	0xbe88bd37	-0.2670686
7	0xbf1914d8	-0.5979743
8	0xbd7b1725	-0.06130137
9	0xbde1b310	-0.110204816
10	0xbee0a154	-0.43873084
11	0x3e7dcd48	0.2478534
12	0x3e7f9c50	0.24961972
13	0x3ea6abe7	0.32553026
14	0x3eeddc30	0.46457052
15	0xbe71bef4	-0.23607999

weight f4 [3, 16]
0	0xbf05b417	-0.5222792
1	0x3e1110ec	0.14166611
2	0x3e036625	0.12831934
3	0xbdad472c	-0.084608406
4	0xbe6f8540	-0.23390675
5	0x3dc905cb	0.09815558
6	0xbdda4e46	-0.10659461
7	0xbf0ffadf	-0.56242174
8	0x3ef6dbc7	0.48214552
9	0xbd1b1ad8	-0.037867397
10	0xbd03ccb0	-0.032177627
11	0xbf238f08	-0.63890123
12	0x3ecd9dd1	0.40159467
13	0x3e4686f8	0.19387424
14	0xbd833918	-0.06407374
15	0x3da823dc	0.08209965
16	0xbdfac6c6	-0.12244944
17	0x3e6627c8	0.22476113
18	0xbebf34b5	-0.373449
19	0xbd8d826c	-0.069096416
20	0x3e0e84d8	0.13917863
21	0x3b3cc532	0.002880406
22	0x3cacd417	0.021097226
23	0x3e7421ea	0.23841062
24	0xbbaeaded	-0.005330792
25	0x3e6e3ce8	0.23265421
26	0x3e569b90	0.2095778
27	0x3de6d7e5	0.11271647
28	0x3e62043d	0.2207193
29	0x3dc43c3e	0.09581803
30	0xbc421640	-0.011846125
31	0xbdb02d10	-0.08602345
32	0x3de2f19b	0.11081239
33	0xbc933090	-0.017967492
34	0xbe9c75e3	-0.3055869
35	0x3e051998	0.12998044
36	0x3ef2b78f	0.4740567
37	0x3d660147	0.056153562
38	0xbc4d2f6a	-0.012523511
39	0x3f0c3aac	0.54777026
40	0xbe7a5d96	-0.24449763
41	0xbe7d5994	-0.24741203
42	0x3e726a4c	0.23673362
43	0x3ec7a983	0.38996515
44	0xbef7d14b	-0.48401865
45	0xbd4a8ba2	-0.04944957
46	0x3bb73940	0.0055915415
47	0xbe073a2c	-0.13205785

bias f4 [3]
0	0x3e9d47f7	0.30718967
1	0xbc9b3da4	-0.018950291
2	0xbe9d6f3d	-0.3074893
