one/mlruns/0/models/m-9f1fd6cbf56343aaab2e60e00212316c/artifacts/data/model.pth (torch, 7689 bytes, 4 tensors)

weight f4 [16, 4]
00000000: 8233 aa3d 2b37 dfbd 0003 2b3f e794 373e
00000010: b8c1 64be 5468 14be d097 f83d 4093 563c
00000020: 905a e73d b6a7 aa3e fe0b cebe a980 043e
00000030: 68b6 c8bd bc8f 4ebe 88b4 80bd 6082 2e3d
00000040: 3159 cbbc 4ebf 28be 6440 f83e e107 043f
00000050: e381 f4bd 4f5c 8e3e 74ff 8c3e 6b7d 46be
00000060: c4a7 d5bd 98ba 073e df56 c9be 08c5 c23e
00000070: 8bb5 ca3c d852 15be f0ab 353f 7e9f 963d
00000080: ae3e ca3e 7e2b 313e bf41 ab3b c19f 10bf
00000090: 64a2 fcbe dcbc 703e e6a7 9fbe 0039 35bd
000000a0: 807d 723d b039 efbe 9ec9 e2be e061 a1be
000000b0: 9e1c dfbb 3fa0 3fbe cc46 783e e970 2f3f
000000c0: 6a56 163f ab6c 633e be36 79be 8b63 1fbf
000000d0: 860f 093e 8517 363f c69f 713e 6279 723e
000000e0: c60a c5be 0043 5abd e0e7 23bd 0292 d83e
000000f0: 9a5b ebbe c8ce d23d 82c9 94be f015 ffbe
0.083106056 -0.10899194 0.6680145 0.17927895 -0.22339523 -0.14492923 0.12138331 0.013096631
0.1129657 0.33331078 -0.40243524 0.12939705 -0.09800416 -0.20172018 -0.062844336 0.042604804
-0.024822803 -0.16479227 0.48486626 0.5157452 -0.119388364 0.278048 0.27538645 -0.1938378
-0.104323894 0.13254774 -0.3932409 0.38040948 0.02474477 -0.14582384 0.7096548 0.073546395
0.39500946 0.17301747 0.0052263434 -0.56493765 -0.49342644 0.23509544 -0.31182784 -0.044243813
0.059201717 -0.467237 -0.44294447 -0.31519985 -0.0068088314 -0.18713473 0.24245757 0.6853166
0.5872561 0.22209422 -0.24337289 -0.62261266 0.13384828 0.7112964 0.23596105 0.23679116
-0.38484782 -0.053286552 -0.040016055 0.42298895 -0.45968324 0.10293347 -0.29059988 -0.49821424

bias f4 [16]
00000000: 78fa 0cbf b81a a83e 12ba fb3d 5c9d 373e
00000010: 92e1 823d 999b bcbe a355 87be 0678 09bf
00000020: 439f 07be 10b3 e1bd 54a1 e0be d3cd 913e
00000030: 3909 373d 47fe 583e 30dc ed3e f4be 71be
-0.55069685 0.32832885 0.122913495 0.17931122 0.063906804 -0.36837462 -0.26432523 -0.53698766
-0.13244347 -0.110204816 -0.43873084 0.28477344 0.04468653 0.21190749 0.46457052 -0.23607999

weight f4 [3, 16]
00000000: 0b0e c9be ec10 113e 93e7 c93c 2c47 adbd
00000010: 2eda 01be 3f5b b93d 8f69 dfbd d8be ecbe
00000020: 6b9b bc3e d81a 1bbd b0cc 03bd a6f0 06bf
00000030: 0cfe 953e f4cf 123e 1839 83bd dc23 a83d
00000040: 8e95 c3bd c827 663e 4654 8ebe 6c82 8dbd
00000050: f169 4d3e 0c71 203d e7ca c13c bd07 923e
00000060: 8a1b 09be e83c 6e3e 909b 563e 3f71 733e
00000070: 1c03 c53c e4a6 733d 4016 42bc 102d b0bd
00000080: eca5 6f3c 9030 93bc d823 52be 9819 053e
00000090: bd4d b03e ce95 403d a9d9 24bc aa4d da3e
000000a0: a510 d2bd 9459 7dbe 4c6a 723e ff44 783e
000000b0: cdbb 99be ccf4 6dbb 4039 b73b 2c3a 07be
-0.39268526 0.14166611 0.024646556 -0.084608406 -0.12680885 0.09050607 -0.109088056 -0.46239352
0.36837325 -0.037867397 -0.032177627 -0.5271095 0.29295385 0.1433714 -0.06407374 0.08209965
-0.0955001 0.22476113 -0.2779867 -0.069096416 0.20059945 0.03917031 0.023656322 0.2852153
-0.13389412 0.23265421 0.2095778 0.23773669 0.024049334 0.05948533 -0.011846125 -0.08602345
0.014626961 -0.017967492 -0.20521486 0.12998044 0.3443431 0.047017865 -0.01006166 0.42637378
-0.10257081 -0.24741203 0.23673362 0.2424507 -0.30026093 -0.003630924 0.0055915415 -0.13205785

bias f4 [3]
00000000: 0bcd 853e ff26 0abe f01e 52be
0.26132998 -0.13491438 -0.20519614
