one/mlruns/0/models/m-389b5a6639fa4f3ba5fe5ad4e802e621/artifacts/data/model.pth (torch, 7689 bytes, 4 tensors)

weight f4 [16, 4]
000000 2a 16 0e 3d 8b 59 34 be 9e 23 41 3f 58 f9 89 3e
       0.034689106 -0.17612283 0.7544497 0.26948047
000010 b8 c1 64 be 54 68 14 be d0 97 f8 3d 40 93 56 3c
       -0.22339523 -0.14492923 0.12138331 0.013096631
000020 b0 a1 e8 3d 7d 89 b8 3e 65 b5 f0 be 20 ca 10 3d
       0.113589644 0.36042395 -0.47013393 0.03534901
000030 68 b6 c8 bd bc 8f 4e be 88 b4 80 bd 60 82 2e 3d
       -0.09800416 -0.20172018 -0.062844336 0.042604804
000040 85 c6 fc bc bd 69 63 be eb 7c 12 3f 04 5e 1d 3f
       -0.03085638 -0.22208305 0.5722186 0.6147158
000050 b6 fd 03 be 86 28 8a 3e e7 50 90 3e 97 ed 3d be
       -0.12889752 0.26984042 0.28186724 -0.18547665
000060 91 ba d9 bd e5 ae 05 3e 4c 56 ca be 1c c5 c1 3e
       -0.10631288 0.13054998 -0.39518964 0.37845695
000070 67 5a ef 3c 65 70 3b be 66 df 44 3f 43 e1 0a 3e
       0.029217912 -0.18304594 0.7690338 0.13562493
000080 83 11 cd 3e 56 cb 60 3e 7e 17 67 bd 9d ab 21 bf
       0.40052423 0.21952567 -0.05641889 -0.63152486
000090 64 a2 fc be dc bc 70 3e e6 a7 9f be 00 39 35 bd
       -0.49342644 0.23509544 -0.31182784 -0.044243813
0000a0 80 7d 72 3d b0 39 ef be 9e c9 e2 be e0 61 a1 be
       0.059201717 -0.467237 -0.44294447 -0.31519985
0000b0 1b 7e d5 3b 1a 0b 60 be 31 2e 9a 3e 05 99 3f 3f
       0.006515277 -0.21879235 0.30113366 0.74842864
0000c0 23 40 2d 3f bc e8 9c 3e 73 9d a8 be 5d d5 38 bf
       0.6767599 0.30646312 -0.32932624 -0.72200567
0000d0 36 d2 2a 3e dd 93 42 3f ad e0 48 3e 95 87 3f 3e
       0.16681752 0.7600687 0.19616957 0.18704064
0000e0 c6 0a c5 be 00 43 5a bd e0 e7 23 bd 02 92 d8 3e
       -0.38484782 -0.053286552 -0.040016055 0.42298895
0000f0 9a 5b eb be c8 ce d2 3d 82 c9 94 be f0 15 ff be
       -0.45968324 0.10293347 -0.29059988 -0.49821424

bias f4 [16]
000000 19 a3 1e bf b8 1a a8 3e d5 37 0b 3e 5c 9d 37 3e
       -0.6196762 0.32832885 0.13595517 0.17931122
000010 28 25 ea 3b 67 95 c1 be 71 58 88 be 62 1c 11 bf
       0.0071455427 -0.37809297 -0.26629975 -0.56683934
000020 76 ba d1 bd 10 b3 e1 bd 54 a1 e0 be 12 69 8b 3e
       -0.10240643 -0.110204816 -0.43873084 0.272286
000030 58 2b 14 3e 4b 3b 88 3e 30 dc ed 3e f4 be 71 be
       0.1446966 0.26607737 0.46457052 -0.23607999

weight f4 [3, 16]
000000 f3 92 ef be ec 10 11 3e 8d a6 a5 3d 2c 47 ad bd
       -0.467918 0.14166611 0.08088408 -0.084608406
000010 2b 88 42 be d4 78 c7 3d a9 bc db bd 87 c5 05 bf
       -0.18997256 0.09739843 -0.107293434 -0.5225453
000020 d2 4b dd 3e d8 1a 1b bd b0 cc 03 bd 13 db 17 bf
       0.4322191 -0.037867397 -0.032177627 -0.59318656
000030 c9 10 b6 3e a3 91 2c 3e 18 39 83 bd dc 23 a8 3d
       0.3555968 0.16852431 -0.06407374 0.08209965
000040 73 96 cc bd c8 27 66 3e e7 4d a2 be 6c 82 8d bd
       -0.099896334 0.22476113 -0.3170006 -0.069096416
000050 f4 75 39 3e ec 20 b5 3c 38 b4 b2 3c 43 39 8c 3e
       0.18111402 0.022110425 0.02181445 0.27387437
000060 0e 17 95 bd e8 3c 6e 3e 90 9b 56 3e 64 49 40 3e
       -0.07279788 0.23265421 0.2095778 0.18777996
000070 d6 10 ee 3d 9b 9a 98 3d 40 16 42 bc 10 2d b0 bd
       0.11624305 0.07451364 -0.011846125 -0.08602345
000080 f4 42 7e 3d 90 30 93 bc cc ab 89 be 98 19 05 3e
       0.06207557 -0.017967492 -0.26888883 0.12998044
000090 0b e1 d2 3e 4f 16 43 3d 77 e1 41 bc 60 c2 fb 3e
       0.4118732 0.047628697 -0.01183354 0.49171734
0000a0 fb 8a 32 be 94 59 7d be 4c 6a 72 3e 84 71 a4 3e
       -0.1743583 -0.24741203 0.23673362 0.32117856
0000b0 c3 ba c9 be 98 35 c2 bc 40 39 b7 3b 2c 3a 07 be
       -0.394003 -0.023707196 0.0055915415 -0.13205785

bias f4 [3]
000000 7a ee 94 3e 44 f8 a0 bd 24 36 85 be
       0.29088193 -0.07859853 -0.2601787
