one/mlruns/0/models/m-13541efbf6d84b95aadc5c65a9bdf03c/artifacts/data/model.pth (torch, 7689 bytes, 4 tensors)

weight f4 [16, 4]
0.034558177 -0.48826075 -0.4728024 0.34638476 0.14005412 -0.53242475 0.53529793 0.85993326
-0.4329971 0.026788712 0.050126493 -0.31172854 0.36218593 0.9703283 -0.5703988 -1.0924482
-0.18496045 -0.22954565 0.8387309 0.63650006 -0.2523808 -0.16342191 0.235955 -0.050534796
0.32687846 0.29227117 0.16237755 -0.3146002 0.104168594 -0.24379516 -0.1053471 0.082770765
0.1910517 0.9321396 -0.5663387 -0.32854196 0.050245762 -0.06558287 -0.3371895 -0.08410537
0.2073836 0.044271976 0.2701977 0.24399507 -0.49429613 0.46723384 0.08177012 -0.49417096
0.19646198 -0.53837407 0.77907985 0.8450558 -0.41118914 0.43899626 0.11980796 -0.38473588
-0.25351816 -0.17216574 -0.05462693 0.30313545 -0.40526116 -0.34950942 -0.20992732 -0.2894935
00000000: e08c 0d3d 50fd f9be 2813 f2be 5859 b13e
00000010: 596a 0f3e fd4c 08bf 4909 093f 9624 5c3f
00000020: ccb1 ddbe 0074 db3c 7051 4d3d e29a 9fbe
00000030: 6f70 b93e 6f67 783f a805 12bf 58d5 8bbf
00000040: 4666 3dbe 040e 6bbe 11b7 563f abf1 223f
00000050: 0e38 81be 1358 27be 309e 713e 93fd 4ebd
00000060: 9d5c a73e 91a4 953e 4d46 263e 4713 a1be
00000070: 5856 d53d 70a5 79be 38c0 d7bd b883 a93d
00000080: 0fa3 433e b3a0 6e3f 93fb 10bf a736 a8be
00000090: 80ce 4d3d 5050 86bd 1aa4 acbe 703f acbd
000000a0: 5e5c 543e 8856 353d 5a57 8a3e d8d9 793e
000000b0: 6214 fdbe 4639 ef3e 1877 a73d fa03 fdbe
000000c0: 542d 493e e2d2 09bf c771 473f 9455 583f
000000d0: 6287 d2be 1ec4 e03e e05d f53d 1afc c4be
000000e0: 22cd 81be 374c 30be 7dc0 5fbd 9234 9b3e
000000f0: 647e cfbe e6f2 b2be 30f7 56be 7e38 94be

bias f4 [16]
0.025266469 0.02180156 -0.49462092 0.9658724 0.15407997 -0.27647448 -0.15546921 0.021575153
0.9617362 0.29260302 0.07542815 -0.12898892 -0.48989397 0.17046225 0.22248091 0.17120981
00000000: a0fb ce3c 2f99 b23c f43e fdbe 6a43 773f
00000010: 24c7 1d3e 108e 8dbe 5233 1fbe 60be b03c
00000020: 5834 763f 10d0 953e 137a 9a3d ac15 04be
00000030: 62d3 fabe a88d 2e3e 09d2 633e a051 2f3e

weight f4 [3, 16]
-0.04438445 -0.7695936 -0.22358453 0.3460351 -0.6188168 0.04302947 -0.03764633 0.1891864
0.68357825 0.17059451 -0.21141799 -0.10095891 -0.41813147 -0.19727835 0.0536394 -0.14767721
0.15460142 -0.1685141 -0.102151304 0.030770093 -0.01994071 -0.019882845 0.0993082 -0.1791226
0.17794564 -0.15904158 0.016336838 -0.015098542 0.08485853 0.19925424 -0.08805743 -0.15384349
0.018545419 0.24540491 0.058317423 -0.83585525 0.5227817 0.096030906 -0.2574607 0.15099943
-0.8492981 -0.23743969 -0.03128368 0.17748865 0.29388705 -0.19006461 -0.10816277 -0.027393311
00000000: 78cc 35bd 1604 45bf 58f3 64be 832b b13e
00000010: c76a 1ebf ab3f 303d 0a33 1abd 14ba 413e
00000020: fcfe 2e3f 54b0 2e3e f57d 58be 8cc3 cebd
00000030: 5415 d6be 5603 4abe fdb4 5b3d b238 17be
00000040: d64f 1e3e f68e 2cbe b434 d1bd 9011 fc3c
00000050: b35a a3bc 59e1 a2bc 1962 cb3d ea6b 37be
00000060: 6237 363e ccdb 22be d5d4 853c e05f 77bc
00000070: 4fca ad3d 4e09 4c3e 7457 b4bd 2689 1dbe
00000080: 90ec 973c 6d4b 7b3e 40de 6e3d 9cfa 55bf
00000090: 06d5 053f daab c43d e4d1 83be 989f 1a3e
000000a0: 9a6b 59bf 6423 73be 5123 00bd 96bf 353e
000000b0: 5d78 963e 4ca0 42be 7184 ddbd f067 e0bc

bias f4 [3]
0.5622099 -0.06449965 -0.21643753
00000000: fdec 0f3f 6418 84bd cda1 5dbe
